src/models/best_diamond_dnn.pt (torch, 106871 bytes, 31 tensors)

weight f4 [32, 6]
00000000: f72e ca3b f163 13bf cb59 0f3d 7ccf 6ebd
00000010: c94d bb3f d44b 1140 7528 503e 2f98 6d3e
00000020: 0e75 8b3e 6058 c9bd da8d 2140 1d8f c43f
00000030: c410 1fbf e0d6 65bf 5c82 0abe 63a5 a43e
00000040: 7509 693f e427 8b3f b564 9a3e ee35 463e
00000050: d7fa 02bd fc42 9c3c 797e 4740 8f09 c13f
00000060: 6212 8ebe e66e c93f 71e6 b93d 53c1 8d3e
00000070: 943e 68bf 79e1 c0bf 08ef 93be 6294 a43f
00000080: f7a2 2cbe 5454 e93d ff72 75bf 4287 f1bf
00000090: 65e6 c4be 7e3b 3e3e 39de 03be 291d 9b3d
000000a0: b1c1 55c0 20da c13f 96b5 c8be fab7 e23f
000000b0: 7638 9abe 4272 e6bd 070b 8dbb 9e0a a83f
000000c0: 50f3 52bf 0ff9 30bd f61e 3abd 043d e3be
000000d0: 17f2 5c3e 2d5a e73f 1a02 513e 6a2a 13bd
000000e0: 5a17 df3d de78 ca3f 5dd7 9d3f 36f9 903f
000000f0: b264 8b3f a14d d0be 76e2 333e fba2 fd3e
00000100: 6fbb 073f 4522 d23f 6fdb 7a3e 2cb4 ccbe
00000110: 005a b6be 2038 003e 7ee9 513f 4f98 4140
00000120: e102 3cbf 013d a9be bc97 1cba 24a8 84bf
00000130: a6c8 663d 7891 d83d faa5 e33f 0bf6 193f
00000140: cee3 cabe b3f9 fbbd 3609 9ebe 5f36 123d
00000150: 6b91 1840 31c8 d6bd db6f ca3e e738 c7be
00000160: 9d4d da3c 4524 4e3f 1937 fe3f 32e3 c53d
00000170: a64f 5fbe ad76 52bd 7d61 88bf f50a 2bbe
00000180: 4b76 67bf d4c3 ad3c 4642 2b3e d6d7 fbbe
00000190: 713a 40bf b6c0 3f3f eb42 b23f d6e1 2a3f
000001a0: e994 0c3e f008 76be 7850 2ebe e8b6 90bf
000001b0: 1932 e5be 621a bc3f 639c 9b3e c427 303e
000001c0: 97f7 983f 7d76 313f e7ef e3be b453 af3e
000001d0: 999a 5ebd 2667 d73c 2a0f 0ec0 8473 f3bf
000001e0: 29b6 39bf aa43 0fbd 2dc7 8fbf 003e 11be
000001f0: 3d78 7dbf 9533 bbbe 69a1 e93d 288d 4e3f
00000200: ba54 d73d c2ea 5ebd 1e2c a3bd e06d 2fc0
00000210: a1c0 9fbe 6f9e 763f 1bf9 4bbf af79 ed3e
00000220: 24b1 59bf f64f 93bf b4b6 2340 4736 bdbe
00000230: e14a 90bc 9253 b3bd f483 b63c e56a a13f
00000240: 662e dbbd a089 2dbf 69d9 1f3d 74c6 0a3d
00000250: cf3b 913f 1b97 8040 5e64 83bf 0846 40bf
00000260: 1614 613d 9294 f6bc 80b0 073f 7095 80bf
00000270: dc63 d7be d8ef 9f3f 0a11 6cbf 8f7f 8abd
00000280: b9b4 97be 2a60 1fbf 02c2 b53e b2de 393e
00000290: fb93 973d fde6 1cbc ec76 10c0 9378 35bf
000002a0: b4eb b7bd 90ba a23f 13f0 003a 8843 123c
000002b0: e02a c3bf c693 b9bf aa54 6a3f ed2f 413f
000002c0: 1e90 093e c209 183e f7f9 923f 1f58 923f
000002d0: 9545 1cbe 0d8f 9fbe 099e 2a3d 88f2 dfbe
000002e0: 99ac d33f 7a0b fd3f 1978 57be 561e 95be
000002f0: a4bc 8ebd 3286 5e3f 628d a3bf fda3 f0bf
0.0061701494 -0.57574373 0.034997743 -0.05830334 1.4633113 2.2702532 0.20327933 0.23202585
0.27237743 -0.09831309 2.524283 1.5356175 -0.6213496 -0.89781 -0.1352629 0.3215743
0.91030055 1.0871549 0.30154958 0.1935651 -0.0319775 0.01907491 3.1170943 1.5081042
-0.277484 1.5736969 0.09077156 0.27686557 -0.90720487 -1.5068809 -0.28893304 1.2857783
-0.16859041 0.113930374 -0.95878595 -1.8869402 -0.38457027 0.18577382 -0.1287774 0.07573921
-3.339947 1.5144691 -0.3920104 1.7712395 -0.301212 -0.11252262 -0.004304293 1.312824
-0.82402515 -0.04320627 -0.045439683 -0.4438249 0.21576725 1.8074394 0.20410958 -0.03592912
0.10893126 1.5818136 1.2331349 1.1326053 1.0890105 -0.40684226 0.17566857 0.49538407
0.53020376 1.6416708 0.2449777 -0.3998121 -0.3561554 0.1252141 0.81996906 3.0249212
-0.7344189 -0.33054355 -0.0005973538 -1.0363812 0.056343697 0.10574621 1.7785027 0.60141057
-0.39626926 -0.12303486 -0.30866402 0.035696384 2.3838756 -0.10487402 0.39538464 -0.389106
0.026648337 0.8052409 1.9860564 0.09662475 -0.21807727 -0.05138271 -1.0654751 -0.16703399
-0.90414876 0.021211542 0.167245 -0.49188107 -0.75089175 0.7490343 1.3926672 0.6675085
0.1372868 -0.24026847 -0.17022884 -1.1305819 -0.44764784 1.4695551 0.3039275 0.1720267
1.1950558 0.69321424 -0.44518968 0.34243548 -0.054346655 0.026294302 -2.2196755 -1.9019628
-0.7254358 -0.03497664 -1.1232659 -0.14183807 -0.99011594 -0.3656279 0.1140774 0.8068414
0.10514207 -0.0544231 -0.07967399 -2.7410812 -0.31201652 0.963355 -0.7967698 0.463819
-0.8503592 -1.1508777 2.5580263 -0.36955473 -0.01761383 -0.08756174 0.022279717 1.2610747
-0.10702209 -0.67788124 0.039025698 0.033880666 1.1346377 4.0184455 -1.0265005 -0.7510686
0.054950796 -0.03010014 0.5300369 -1.0045605 -0.42068374 1.249507 -0.922135 -0.06762611
-0.29630068 -0.6225611 0.3549958 0.18151358 0.07401272 -0.009576556 -2.2572584 -0.70887107
-0.08980504 1.2713184 0.00049185863 0.0089272335 -1.524746 -1.4498222 0.9153544 0.75463754
0.13433883 0.14847472 1.1482533 1.1433142 -0.15260918 -0.31163827 0.04165462 -0.43739724
1.6537048 1.9769127 -0.21041907 -0.29124707 -0.06969574 0.86923516 -1.2777522 -1.8800045

bias f4 [32]
00000000: c11b 1e3f 5270 f1bd 998c 2f3f a5e1 68be
00000010: 865b 51be 51d2 b63e 9344 9dbd b8c4 243f
00000020: 572f 153f 8600 1ebd ed0f 583e dcba 61bf
00000030: 8c08 b93d 00a9 0dbf e672 7d3e da8b 38be
00000040: 0e47 453e 04e3 433f e2ef 043f 73e1 4c3f
00000050: afaa d53e 41a3 053e 7b87 23be 693a 023f
00000060: 24de 71be d0d6 0abe e893 2139 abac 8a3e
00000070: cd32 f13e 0c42 ba3e 7e2c 3d3e d0ea 57be
0.617611 -0.117890015 0.6857391 -0.22742327 -0.2044507 0.35707334 -0.07679095 0.6436267
0.5827536 -0.038574718 0.21099825 -0.8817575 0.09034833 -0.55336 0.24750862 -0.18022099
0.19265386 0.76518273 0.5192853 0.8003151 0.41731784 0.13050558 -0.1596965 0.50870377
-0.23619896 -0.13558507 0.00015409256 0.2708486 0.4710907 0.36378515 0.18474004 -0.21085668

weight f4 [32]
00000000: c44c cf3f aba7 2a3f bda8 833f 0078 343f
00000010: 85e4 823f 0ca8 9f3f 5956 9d3f 92cb a43f
00000020: a8ea 5a3f b3e5 443f 4cea 613f 5233 5b3f
00000030: 343b 073f 4714 bf3f 9cb3 c13f 7d2e c83f
00000040: 5a41 4e3f 4ea0 d13f 3126 a43f a48a e73f
00000050: 4f20 793f 5180 763f d4f6 943f 7acf d83f
00000060: 8384 a33f 4968 9c3f 9c12 9c3f c8ba 913f
00000070: 83f6 ef3f 088e f63e f7d7 6d3f cf7c 7e3f
1.6195302 0.6666209 1.028587 0.70495605 1.0225989 1.2473159 1.2291976 1.2874625
0.8551431 0.76912993 0.88248134 0.85625184 0.5282471 1.4928063 1.5132937 1.5639187
0.8056847 1.6377046 1.2824155 1.8089185 0.97314924 0.96289545 1.1637826 1.6938317
1.2774814 1.2219325 1.2193179 1.1385126 1.8747104 0.48155236 0.9290766 0.9940919

bias f4 [32]
00000000: bac0 80bf 1a94 70bd 5763 71bf 2201 e1bb
00000010: f7ae 92be b2f9 d3be 4054 39bf d81e 45bf
00000020: ed70 6fbf d297 b8be 3bd7 eebe 1cb4 ccbe
00000030: f59b dfbc f27d 2abf e392 a1be fd05 1ebf
00000040: 6480 52bf cd8e 7bbf a155 67bf c121 3ebf
00000050: 56af 4fbf 82a5 87be 5f11 5ebf 8c7b 59bf
00000060: d9a5 2abf 229f 77bf 7145 6cbf 46b6 ddbe
00000070: 16e5 98bf 9a91 863e 9c5c f9be f031 f4be
-1.0058815 -0.05873499 -0.94292206 -0.00686659 -0.28649113 -0.4140144 -0.7239418 -0.7700019
-0.93531686 -0.3605333 -0.46648583 -0.39981163 -0.027296046 -0.6659843 -0.31557378 -0.6172789
-0.8222716 -0.9826477 -0.90365034 -0.74270254 -0.81126916 -0.2649346 -0.86745256 -0.8495414
-0.66659313 -0.9672719 -0.9229346 -0.43303126 -1.1944911 0.2628296 -0.48703468 -0.4769435

running_mean f4 [32]
00000000: 71cf 42bf a828 ddbe b556 e23d 5448 8cbe
00000010: fd01 403f 3e4a cf3f 8c37 2ec0 31b3 ecbe
00000020: 6c44 62bf 1274 06bf 0540 81bf 1870 4ac0
00000030: 3731 ca3c daa4 35bf a2b1 eebe 1235 f4be
00000040: 0471 40bf 9e30 d53f 8216 d53e 9c47 c73f
00000050: 700a b93e 9329 1e40 622e 053f 5984 18bf
00000060: 3266 50c0 8e7d 713f 5933 e83e e848 e5bc
00000070: 0ae0 8f3f 4450 26be e932 5cbf 42c6 653f
-0.7609778 -0.4319508 0.11051694 -0.27398932 0.75003034 1.6194532 -2.7221403 -0.46230462
-0.88385653 -0.5252086 -1.0097662 -3.1630917 0.02468167 -0.7095467 -0.46619898 -0.4769674
-0.7517245 1.6655462 0.41618735 1.5568728 0.36140776 2.4712875 0.520239 -0.59576946
-3.2562375 0.94332206 0.45351675 -0.027988866 1.1240246 -0.16241556 -0.8601518 0.8975564

running_var f4 [32]
00000000: af70 073e f0e2 813f bab8 163f 47ea 963f
00000010: df94 ef3f 1c81 8b3f fa92 5d3e 384b 9140
00000020: 09ad 843f 99d0 b33f b2dc a73f 4c5f 533e
00000030: cd5a 723f adde 3140 d9ff b840 8d83 9140
00000040: 7d11 553f 93cc db3f 18b4 8d40 3c2e 803e
00000050: b7c4 713f 9238 993e 2dae 8d3f 757c df40
00000060: 5c55 863e 1ce4 723f 224f 1040 d474 293f
00000070: bc7f 353f 3280 943f 762e cf3e 3c1e 763f
0.13226579 1.0147381 0.5887562 1.1790246 1.8717307 1.0898776 0.21638098 4.540432
1.0365306 1.4048034 1.3114226 0.20641822 0.946698 2.779216 5.7812314 4.5473084
0.8322981 1.7171806 4.428234 0.25035274 0.9444079 0.29925972 1.1068779 6.9839425
0.26237 0.9487932 2.25483 0.6619389 0.7089803 1.1601622 0.40465134 0.96139884

weight f4 [64, 32]
00000000: 3c28 7abd 7d0b 35bc 2786 7dbf c0d5 8f3e
00000010: f5aa 043d 7c12 333f ce32 993f a749 a43d
00000020: fe23 a13e 942d 97be 41bb 8dbe 09d1 a1bf
00000030: 69bb e13d 0d18 35bf 9cd9 40be 1caf 1ebf
00000040: 0f84 a43e 4613 febe 1d80 703e 495e 1bc0
00000050: 9804 dbbe 54ce ddbe 8193 0c3f 736a 22bf
00000060: bec3 603e 8d0d d0be 481d 73be 9b07 0abf
00000070: 894b 91bf 097a c5bc 4d91 943e 1243 bcbe
00000080: bd2e 67bf 3a97 0dbf 805a 393c 5569 eebd
00000090: bb51 493e e9e2 fe3e 8dd2 8bbf 828f 1dbf
000000a0: e0f1 053f 187e 46bf cd6d 933e 4c57 08bf
000000b0: 193c f8be 57bf 9d3e 07b9 963e f9fc a1bd
000000c0: b3ad e43e 7277 903e aa0d 71bf 3dab babe
000000d0: 7d65 643f cd49 d23c cdb7 ef3e 596d 80be
000000e0: ea7d cfbf 0e1f b03e 0c1e b93f b2ab c0be
000000f0: 8aec c43e c9ac 143e a82c d5bd 1a90 27bf
00000100: 1da4 a9be 78c7 8ebf 7649 853e 3982 1ebf
00000110: b005 2dbe ea58 773e d716 063f 291f b8be
00000120: aff8 fa3d 5e03 213f 0c25 243f 50f7 1c3e
00000130: 4bbb f7bd 169c 6a3f 2557 d73d 6253 333f
00000140: 7d94 643c c5d9 2b3e 5746 3abe 7a0d 233f
00000150: fea0 ac3f f038 8b3d 8cd5 4a3f e474 103f
00000160: 777b e53d e6c6 643f e311 6d3f 9f06 0c3f
00000170: 68b5 1e3f 3165 acbe bf3e d1be 2add 4cbe
00000180: c8e8 063f 2c09 3c3e a568 ef3e fa52 803e
00000190: 95d6 1f3e 46ea 6a3e 8146 fcbe 0bb0 d93c
000001a0: fc6c 94be c15f 573e 1b97 2a3d 8482 6e3e
000001b0: 8ef4 a03e 3391 25bf 5034 54bf 53e2 c2bf
000001c0: 3ba8 94bd 4764 acbe 7949 003e 10a2 e9be
000001d0: 02d6 933d 302b c13e b262 953c a1c5 8cbf
000001e0: d0eb 1ebe af89 b83e 2007 1b3e 1bfd 00c0
000001f0: b24e c23f c7df f53e 8286 0fbe 3e1b dcbd
00000200: 9aa0 733e e56e f73d b76b 8a3e 5f89 efbd
00000210: 9841 be3e d746 62bc a3f4 293f 1560 133e
00000220: 8585 9e3f 328c 80be 91e5 74be 2719 d1be
00000230: 001f 23bc 17ea 60be 1601 9ebf f775 91bf
00000240: f10c 2f3f 0ba1 8dbf 5f9a 383f 16b7 593d
00000250: 8314 14be 9e3f 64be 4d13 b93e fcca 75bf
00000260: f743 9e3e 15e9 f03e 713c 913e e9c2 a2be
00000270: fe24 9a3e 48e1 a6bd f657 1f3f 7fee d4be
00000280: 9026 24be 5f5d 4b3f 6e52 5a3e f880 f43e
00000290: 5dd6 133f 3478 053e 54ca 483f 6f7c 363f
000002a0: 473f 74be 3d86 163e 6258 fa3e dc2f dd3e
000002b0: 33a3 d23e b97c 293f d672 15be b044 53bf
000002c0: 3231 2fbe 999d c53d 1616 423f 4375 a13f
000002d0: 7612 e7bd 4ef8 843e 921e cfbf c750 dabe
000002e0: c30d 033f 8890 bfbd 6325 22bf aecb 4dbd
000002f0: 4373 423f bc77 433f 2293 3c3f 5de4 19bd
00000300: 6bcf adbe e04f eebd f020 6abe 0cf4 f03c
00000310: 9ffd 28bf b883 d23e 7bf0 20bf fc79 a83e
00000320: eef7 353f 7f8f debf 0742 503e da9e c93e
00000330: 25e7 183f d842 ce3e bb10 70bf a778 07bf
00000340: e5b2 183f d9c4 8dbf 09e3 b0be 6ad1 903e
00000350: 5097 0c3f 992c d03e bbd2 763d 96fa 283d
00000360: 6c1e 7fbc eaaa 9a3e 6d3d 1b3f 7dde 58bf
00000370: 35bd 703e 574b cabe 4bd5 ca3e 0b66 93bf
00000380: 6056 363f 97de 39bd 0d60 1cbf 9bb7 d23d
00000390: 148e 1d3e 6253 c23e f40d 03bf 8651 f33e
000003a0: be24 4abf 22ea e73d 3582 94be 7734 7b3f
000003b0: 69c4 9fbf 56ba c0be 63b0 cebd d482 093e
000003c0: 8b25 80bf 976d 5bbf 7b2f 953d 99cb 47bd
000003d0: e6da a23c b771 3bbe 49fe 853f 66b9 043e
000003e0: 17ab 2fba 043b 9fbf 2e00 4c3f e5cc 4e3e
000003f0: 2e02 f6bc ce54 9c3e 04bb d0be cf28 2dbf
-0.061073527 -0.011050102 -0.99032825 0.28092766 0.0323896 0.6995008 1.1968629 0.080218606
0.31472772 -0.2952696 -0.27681926 -1.2641917 0.11022074 -0.70739824 -0.18833011 -0.61985946
0.32132003 -0.4962408 0.23486371 -2.4276297 -0.42776942 -0.43321478 0.54912573 -0.6344368
0.2194967 -0.40635338 -0.23741639 -0.53917855 -1.1351177 -0.024106042 0.29017106 -0.3676992
-0.9030569 -0.5530888 0.011313081 -0.11641184 0.19660084 0.49782494 -1.092363 -0.615471
0.52322197 -0.77536154 0.2879471 -0.53258204 -0.4848335 0.30810043 0.2943804 -0.07909579
0.44663772 0.2821613 -0.94161475 -0.3645877 0.8921736 0.025669957 0.46819916 -0.25083426
-1.6210301 0.34398693 1.4462295 -0.37630993 0.38461715 0.14519037 -0.10408908 -0.65454257
-0.3313302 -1.1154623 0.2603261 -0.61917454 -0.16896701 0.24155012 0.523786 -0.35961273
0.12254464 0.6289576 0.6411903 0.15328717 -0.1209627 0.9164442 0.105146684 0.7004911
0.013951418 0.16782291 -0.18190895 0.6369244 1.3486631 0.06797969 0.79232097 0.5642836
0.1120519 0.89365995 0.9260542 0.54697603 0.61995554 -0.33670953 -0.40868184 -0.20006242
0.52698946 0.18362874 0.46759525 0.25063306 0.156092 0.2294093 -0.4927254 0.026573202
-0.28989398 0.21032621 0.04164801 0.23291975 0.3143658 -0.6467468 -0.8289232 -1.5225319
-0.0725865 -0.33670256 0.12528028 -0.45631456 0.07218553 0.37728262 0.018235538 -1.0997812
-0.15519643 0.36042544 0.15139437 -2.0154483 1.5180266 0.4802229 -0.14016154 -0.107473835
0.23791733 0.12081698 0.27035305 -0.11696123 0.3715942 -0.013810835 0.6638891 0.14392121
1.2384497 -0.2510696 -0.23915698 -0.40839502 -0.009956121 -0.21964298 -1.2344081 -1.1364125
0.6837912 -1.1064771 0.7211055 0.05315312 -0.1446095 -0.22289893 0.36147538 -0.96012855
0.30911228 0.47052827 0.28366426 -0.3178933 0.30106348 -0.08148438 0.6224359 -0.41588208
-0.16030335 0.7943935 0.21320507 0.47754645 0.5774897 0.13034135 0.7843373 0.7128362
-0.23852263 0.14699645 0.48895556 0.43200576 0.41140136 0.66205937 -0.14594588 -0.82526684
-0.1710861 0.096492 0.7581495 1.261391 -0.11282818 0.2597069 -1.6181204 -0.42639753
0.51192874 -0.09353739 -0.633383 -0.050243072 0.75957125 0.76354575 0.73662007 -0.0375713
-0.3394731 -0.11636329 -0.22864127 0.029413246 -0.66011995 0.41116118 -0.62866944 0.32905567
0.71081436 -1.7387542 0.20337687 0.39379007 0.597277 0.40285373 -0.9377553 -0.52918476
0.5964797 -1.1075698 -0.34548214 0.2828477 0.54918385 0.40659025 0.060259562 0.041254602
-0.015571218 0.30208522 0.60640603 -0.8471449 0.23509677 -0.39510605 0.39615855 -1.1515516
0.7122555 -0.045378294 -0.6108406 0.10288926 0.1538623 0.3795424 -0.51193166 0.47523135
-0.78962314 0.11323954 -0.2900559 0.9812693 -1.2481815 -0.37642163 -0.10092237 0.13428813
-1.0011457 -0.85714096 0.07284447 -0.04877815 0.01987977 -0.18305098 1.0468227 0.12961349
-0.00067012146 -1.2439885 0.79687774 0.20195349 -0.030030336 0.3053345 -0.40767682 -0.67640394

bias f4 [64]
00000000: 1712 683d 37ee 4ebd 11c6 b43e c905 08be
00000010: 127a 16bd 094a 1fbc c061 15be 125a cc3c
00000020: e9eb 893d cb90 3c3e a56a 273e 27c0 873e
00000030: 1bc4 3ebd ec17 243e 032d f03c d64a 9abc
00000040: 3bf1 afbd 9931 2bbd 651d ebbd 59db c7bd
00000050: 837f 87bd 110d f1bd 76fe 30be fe07 0a3e
00000060: 65e1 08be 2d37 4a3e 6026 6b3e b03a 1dbe
00000070: 734f 30be d169 64be 92df 833d 9437 3cbe
00000080: a037 583c 447d 9dbd 712f babe 368d d1bd
00000090: 5e1d 183e 7fa7 88bd 033d a0bd 9c35 853e
000000a0: 1bf1 a23d 8e61 403e 3799 273e 8929 c03c
000000b0: a44c b13d aab3 8b3d 41f4 953e 3749 8d3e
000000c0: 607a dabd dfef 2bbe ff0b 46be 920a aebc
000000d0: 445e 843d 1be7 9e3c a075 203e 1bd0 85bd
000000e0: a4e9 19bd 308e 37be 1994 15be 9b29 1dbe
000000f0: 8d5c 10be eee9 493e c2ac dd3c 82d1 533e
0.056657877 -0.050520148 0.35307363 -0.13283457 -0.03673751 -0.009722241 -0.1458807 0.024945293
0.067344494 0.18414609 0.16349275 0.26513788 -0.04657374 0.1602475 0.029318338 -0.018834513
-0.08590933 -0.041795347 -0.11480216 -0.09758634 -0.06616118 -0.1177007 -0.17284569 0.13479611
-0.13367231 0.1974761 0.22963858 -0.15354419 -0.17217807 -0.22305991 0.06439127 -0.18380576
0.013196856 -0.07689908 -0.3636432 -0.10232012 0.14854953 -0.06672572 -0.07824137 0.26017463
0.079561435 0.18787214 0.1636704 0.023457306 0.08657196 0.068213776 0.29287913 0.2759492
-0.106678724 -0.16790722 -0.19340514 -0.021245275 0.06463292 0.019397309 0.1566987 -0.065338336
-0.037576333 -0.17925334 -0.14607276 -0.15347902 -0.14097805 0.19718143 0.027059916 0.2068539

weight f4 [64]
00000000: da2e a53f 3ff3 a73f eb4c 9c3f 36fb 993f
00000010: b39b 673f 880a 863f d1a7 993f e4d4 983f
00000020: 23bf a13f b3ab 9c3f 1f41 a93f e12d 8d3f
00000030: 40b5 9d3f 8b21 a03f 82cc 9d3f 801f 993f
00000040: 6e66 cc3f d69f b83f b8f7 a23f d127 6e3f
00000050: 76d4 803f e875 b13f f2df 843f 9557 9b3f
00000060: 09a3 a53f 8327 843f 8bf7 b73f c7d5 853f
00000070: 4d09 643f 6864 c53f fa16 993f 5a4e 8d3f
00000080: 247e b23f c509 8a3f aecd 8d3f 4a62 a63f
00000090: 50f6 933f c234 9d3f 51c3 8e3f 0dd2 4b3f
000000a0: 35d4 a13f 8835 a33f b680 883f e827 933f
000000b0: 17b3 d03f b0bd 913f 03fa 923f 1515 a93f
000000c0: 6889 813f 1c41 a93f 79fc 843f b988 a73f
000000d0: 7bea a33f 6206 af3f 0792 ad3f 75ba 583f
000000e0: 51d0 a23f cb9f 953f 27f8 b33f aa8d c63f
000000f0: ba4d b13f 5a05 bd3f 36b8 a63f 8a42 993f
1.2904923 1.3121108 1.2210974 1.2029788 0.90471953 1.0471964 1.2004339 1.1939969
1.2636455 1.2239898 1.3222998 1.1029626 1.2320938 1.2510237 1.2328036 1.1962738
1.5968759 1.4423778 1.2731848 0.93029505 1.0064838 1.3864107 1.0380843 1.2136103
1.2940379 1.0324558 1.4372419 1.0455865 0.8907669 1.5421267 1.1960137 1.1039536
1.3944745 1.0784231 1.1078393 1.2998745 1.1559544 1.2281725 1.1153356 0.7961739
1.2642885 1.2750711 1.066428 1.1496553 1.6304654 1.1386013 1.1482548 1.3209559
1.0120058 1.3222995 1.0389549 1.30886 1.2805933 1.3673823 1.3560189 0.8465951
1.2719823 1.168939 1.4060105 1.5511982 1.3851845 1.4767258 1.3024967 1.1973431

bias f4 [64]
00000000: ac78 57bf 0396 23bf 74f4 1cbe ddf4 a7be
00000010: 8a55 e4be fbfc 89bf 2644 04bf f7ae 65bf
00000020: d71c e7be 8e53 7fbf 8b25 b2bf 43a7 0bbe
00000030: 9879 a1be c869 c6be 082c 34bf f924 c7be
00000040: d7f4 eabe 9429 04bf c67a 2cbf 4eb4 b4bd
00000050: 8f43 a1be 2479 28bf bf9d a3be 13b5 05bf
00000060: 143c 86bf 6483 5abf 6985 e7be f329 f9be
00000070: 0fbc f0be c849 6abf 4324 3abf daa3 1fbf
00000080: 31ca 38bf e79a 48bf 77cd 96be 3150 1ebf
00000090: c3ae 80bf 393e 84be 723d a7bf 5baa cabe
000000a0: ca26 37bf d6cc 023e bf7e 18bf ae24 3ebc
000000b0: 04e2 78bf ba47 31bf 8b89 26bf 3f11 66bf
000000c0: a1bc 7cbe 6346 c8be 8e3f 6abf 6464 72bf
000000d0: f220 11bf 59a1 24bf fa67 003e dcbf 4abe
000000e0: 36ea d0be 2b40 51bf 9aee fabe 010b 7fbf
000000f0: b239 643d 92b2 62bf 24b8 1abf 59d1 07be
-0.84168506 -0.63900775 -0.15327626 -0.32804003 -0.4459651 -1.0780329 -0.51666486 -0.897201
-0.4513919 -0.9973687 -1.3917707 -0.13638024 -0.3153808 -0.3875258 -0.70379686 -0.38895395
-0.45889923 -0.51625943 -0.6737484 -0.08823453 -0.31496856 -0.65809846 -0.31956288 -0.5222942
-1.0487084 -0.85356736 -0.4521897 -0.48664817 -0.47018477 -0.9151883 -0.7271158 -0.6235939
-0.7218352 -0.7836136 -0.29453632 -0.6184111 -1.0053333 -0.25828722 -1.3065627 -0.39583096
-0.7154356 0.12773451 -0.595684 -0.011605425 -0.9721987 -0.6925007 -0.65053624 -0.89870065
-0.24681331 -0.391162 -0.91503227 -0.94684434 -0.56690896 -0.64308697 0.12539664 -0.19799751
-0.4080369 -0.8173854 -0.49010164 -0.99626166 0.055719085 -0.88553727 -0.60437226 -0.13263454

running_mean f4 [64]
00000000: 9e95 c7bf b85c 79bf 3183 b73f c02d 95bf
00000010: 2484 41bf 1132 c93f 88fa 97bf b62f aebe
00000020: 3bc8 78bf 06a4 6b3f 3934 f73f f5a1 a7bd
00000030: 360a 9bbf be8d 88bf 448a cebf c048 973e
00000040: 9f26 a8be 2ce5 cabf d985 abbf bd1a 10bf
00000050: 3afc 62bf 225a 40bf 1f22 cabf e230 a1bf
00000060: b1f1 483f a699 ccbe 1f4d 9e3f e1e7 c6bf
00000070: 35b1 0cbf 6456 83bf d2d5 0640 da0e db3f
00000080: c504 c9bf 109e 31bf 7f46 80bf f801 bdbf
00000090: 1d4a 503f 16f1 3abf acf7 64bf f0a7 d63f
000000a0: 4a2f a3bf 5bec 553f f95f 8f3e 44bb 963f
000000b0: 4a19 84bf 7396 2abf 85e7 7fbe dc76 b0bf
000000c0: 895f 9abf 0523 1640 af31 123f 5a5b 48bf
000000d0: 0337 b2bf 10a5 8bbe fe98 57bf 25ae b43e
000000e0: 1210 7abf c046 f6be 34c0 f0bf 49b9 9dbe
000000f0: b6e4 afbf b2d6 88bf 3c74 adbf 7e31 a53f
-1.5592535 -0.974071 1.4336911 -1.1654587 -0.75592256 1.5718404 -1.1873331 -0.34020776
-0.9718053 0.92047155 1.9312812 -0.08185188 -1.2112491 -1.0668256 -1.6135945 0.2954769
-0.32841966 -1.5851188 -1.3400222 -0.562908 -0.8866612 -0.7513753 -1.5791663 -1.2593043
0.7849379 -0.39960974 1.2367285 -1.5539514 -0.54957896 -1.0260739 2.1068006 1.7113907
-1.570458 -0.6938181 -1.0021514 -1.4766226 0.8136309 -0.7302412 -0.8944042 1.677
-1.2748806 0.83563775 0.2800291 1.1775899 -1.0320218 -0.6663582 -0.24990661 -1.3786273
-1.2060405 2.3458874 0.5710706 -0.7826439 -1.3923038 -0.2727437 -0.8421782 0.35289112
-0.9768077 -0.48100853 -1.8808656 -0.30805424 -1.3741672 -1.069052 -1.3551097 1.2905729

running_var f4 [64]
00000000: 1869 5040 d3b0 6740 4396 4d40 e604 f440
00000010: 7adb d540 518f 4e40 c717 7b40 a631 2140
00000020: 9b9a 2441 ceec 1240 bf79 5140 b04f e940
00000030: ce2c c040 17d3 c240 72ac b440 be25 2740
00000040: bb13 7140 8c85 8d40 fa18 7040 1487 c740
00000050: 7177 e540 7d85 5b40 8fca fa40 588e 4740
00000060: 706d 0c40 371d 8f3f 9217 4540 4cf7 1e40
00000070: 8546 d740 8e0a 7940 54db 8140 4587 8340
00000080: f6f4 a140 6222 a940 8871 8b40 021f 8e40
00000090: b0b5 2b40 9294 0041 ab8a 4640 c7b2 1340
000000a0: f005 5e40 a99a b440 3668 8840 2d1e 8c40
000000b0: 2ac2 5540 8578 1b41 b7ed 0940 1ea2 a340
000000c0: 21f2 1041 b070 b940 53a5 2d40 af76 2240
000000d0: 543e cc40 8058 6b40 6d5c f840 e3d9 2c40
000000e0: fd0c e140 7a65 ce3f fd46 d640 e9cf 0140
000000f0: 8802 0541 5888 7e40 4de6 7740 ad07 3840
3.2564144 3.6201675 3.2122962 7.625598 6.6830416 3.2274973 3.9233263 2.5186553
10.287745 2.2957034 3.2730558 7.2909775 6.0054693 6.088268 5.6460505 2.6116786
3.7668293 4.422552 3.7515244 6.235239 7.1708302 3.4300225 7.8372264 3.118063
2.1941795 1.1180791 3.0795636 2.4838438 6.7273583 3.8912692 4.0580235 4.1102624
5.0611525 5.285447 4.357609 4.441285 2.6829643 8.036272 3.1022136 2.3077867
3.4691124 5.6438794 4.262721 4.3786836 3.3399758 9.716924 2.155134 5.1135397
9.0591135 5.795006 2.7132156 2.5384939 6.3826084 3.6772766 7.7612824 2.7007987
7.0328355 1.6124718 6.6961656 2.0283148 8.313118 3.9770718 3.8734314 2.8754685

weight f4 [128, 64]
00000000: f69f 5a3f 5f89 51be 1008 503e 4eb2 70be
00000010: 79c4 ba3e 2393 9ebf d199 ff3d 7677 34bf
00000020: 6468 cf3c 328a cb3c f385 8e3f 8bd3 943e
00000030: c32e 6a3d eb14 e63d a5d0 d8bd 230c 27bf
00000040: 4319 eabf d6f2 7cbd d4b6 9d3c 0fc8 97bd
00000050: 0300 8b3e 7bdf b0bf b7e7 2dbd 3612 4b3c
00000060: 16bc 003d 8bc3 15bf 2c62 ed3e 5783 c13d
00000070: 344a 1b3e c351 8dbf 1e12 1cbe 5a51 523b
00000080: 3b8e 4dbf 607b da3e c693 bc3e e4fa ecbc
00000090: e8a5 4bbe c0c9 57be 9d73 36bb 37b5 4b3e
000000a0: 776b 383f bb60 3f3f 7d57 983e 817b 6a3e
000000b0: 4d08 563f b615 df3e 4a02 893e bf33 6cbf
000000c0: 1583 933d 5729 a83e b434 9b3e 2adc d7be
000000d0: c245 733e 136a 94bf 9799 413c 50e2 753e
000000e0: c68a 183e fc65 7cbe ca83 5fbf edb3 b53d
000000f0: 2b9f 58bd 8b53 e03e fa2b 33bf ec42 a83e
00000100: 9585 58be 7102 89bc a8d0 17bf 8284 9dbe
00000110: 25e2 3cbe a165 cb3e 4fab ffbd d0c4 00be
00000120: 4a6a 153e bccc ccbd 0dc9 4cbe 8484 443e
00000130: 363c 483e e2e5 f2bd 0cdf b93e f677 aebd
00000140: bc7d 8ebe eac6 433f bb0b e6be efd3 b3bd
00000150: c026 9dbe d532 513e 72fb 723e 4e4b e43e
00000160: fff2 57bd 391e 2cbf 323d 02bf 468e ef3e
00000170: f7af e93d d0c5 91bf 361f 4a3f 5456 3bbe
00000180: 9889 abbe 3552 fabe 4a3a b13e 6ad4 96bd
00000190: fc98 0f3e 23a2 e0be de46 57bf c87d 62be
000001a0: 4e00 783e 3335 733f 4369 693d 7a65 50be
000001b0: 851c 823d 5119 86be 67c3 5a3d a01b 55bf
000001c0: c272 2fbd 837a 113e 112e e73e 7149 2fbf
000001d0: 7d41 8b3d 6e9f a03e 716a a43d af1a 7d3e
000001e0: f29f 183e ec29 3f3e c2ae f73e 4e06 b2be
000001f0: f517 6a3e 1f54 2cbf 2eda a1bf a18b 7b3f
00000200: ccad 20bf c220 8a3e cffe eebe 255b 3fbf
00000210: f591 b0bd 7be6 293e f947 d03d 36f1 e0bc
00000220: edeb 37bd 5dbc 51bf 6c1e 7e3d c3c1 d43e
00000230: 0477 52bd 659b 63be 0f40 c83e 0c57 8abe
00000240: 0135 dd3d c35e d7be c4ca 3fbf c83f 9d3d
00000250: 0053 7bbd 0179 903e 0e32 25be 8ba2 873e
00000260: 3134 89bf ab06 503e 5f1f 14bf a07a 2ebe
00000270: dc8a d83d eb30 69bf 0e3a 913e 0500 293c
00000280: 57e9 d9be 7c65 ffbe c992 423f 1da9 c03e
00000290: 0c37 26bd b66c 4bbe da78 62be e24a 1c3e
000002a0: fce3 8cbc 3654 da3e b747 49be 3af6 ae3d
000002b0: 375e 0fbe 71a0 51be 6155 543f 952f e3be
000002c0: afec 333e 56fd 48be 62ed f1be 7feb 5e3f
000002d0: 8283 b8bd b63d 0c3f b9d7 2fbd a7d1 35bf
000002e0: 276b dc3e 64d3 3f3f eda4 63be 3bfd 0c3f
000002f0: 03da 9e3e e016 2fbf 8da2 90bf ec70 143f
00000300: e382 d73d 56bb d1bd 772d 9b3e d124 4fbd
00000310: e20d a2be fe9c 96bd e499 c6bf 8161 453e
00000320: 9307 0ebf 987e 723e 1bcb a23e e7bb 05bf
00000330: 3e8f 35bf f580 55bf ef80 6bbe 2f88 ffbd
00000340: 0494 153f 9491 d3be 3253 4abf 0d11 88be
00000350: 0685 4abf b9ba c5bb 0b9c 3d3d 21f0 a03e
00000360: 5383 9c3e 66ae b8be 3fe0 9f3e 725a c2be
00000370: 6de1 3fbf 6076 e13d 5fa7 f9be d1c2 08bf
00000380: b820 85bf 3fbd 823d 50ae 05be d8ce 883b
00000390: d585 0c3d e889 6bbe ce72 2f3e 41ba 0fbe
000003a0: eb2e 0cbf 65a9 1fbe 9402 1bbf cf52 37bf
000003b0: 9cc2 50bf e980 74be bf4a 10bf b308 46bf
000003c0: b457 143d 4e19 0fbf 3926 09be 6550 173e
000003d0: 2353 80be b820 24be 437d 883d d74e 0b3d
000003e0: cc23 453e ae70 493a e9ed 44bf 5d8b e3be
000003f0: 98ed 113e 304a 143f 3237 26be 8e49 013e
0.8540033 -0.20462559 0.20315576 -0.23505518 0.36478022 -1.2388653 0.1248051 -0.7049478
0.025318332 0.02484617 1.1134628 0.29067644 0.0571735 0.112344585 -0.10586671 -0.65252894
-1.8288959 -0.061755024 0.019252218 -0.07411205 0.27148446 -1.3818201 -0.04245731 0.012394479
0.031429373 -0.585015 0.46363962 0.09448879 0.15165025 -1.1040577 -0.15241286 0.0032091946
-0.8029515 0.42672253 0.36831492 -0.028928228 -0.19887507 -0.21073055 -0.0027839907 0.19893347
0.7203898 0.74756974 0.29754248 0.22898676 0.83606416 0.43571252 0.2675956 -0.9226646
0.07202736 0.3284404 0.30313647 -0.4216016 0.23757079 -1.1594871 0.011816404 0.24012113
0.14896688 -0.24648279 -0.8731047 0.08872209 -0.05288617 0.43813738 -0.6998898 0.32863557
-0.21144708 -0.016724797 -0.5930276 -0.30765158 -0.18445642 0.39725974 -0.124838464 -0.12575078
0.14591327 -0.099999875 -0.1999857 0.19191176 0.19554219 -0.11860253 0.36302984 -0.085189745
-0.27830303 0.76475394 -0.44930825 -0.087806575 -0.30693626 0.20429547 0.23728731 0.44588703
-0.052721974 -0.67233616 -0.50874627 0.46788234 0.11410516 -1.1388493 0.78953874 -0.1829465
-0.33503413 -0.48890844 0.34614784 -0.073647335 0.14023203 -0.438737 -0.8409251 -0.22118294
0.24218866 0.9500305 0.05698515 -0.2035121 0.06353096 -0.2619119 0.053409006 -0.8324528
-0.04283405 0.14206891 0.45152333 -0.6847144 0.067996 0.31371635 0.080281146 0.2471721
0.14904764 0.18668336 0.48375517 -0.34770435 0.22860701 -0.6731586 -1.2644708 0.9825993
-0.62765193 0.26978117 -0.4667878 -0.7474845 -0.08621589 0.16591828 0.10169978 -0.027458768
-0.04490273 -0.81928045 0.06204073 0.41554078 -0.051383033 -0.22227247 0.39111373 -0.27019536
0.10801125 -0.42064485 -0.7491877 0.07678181 -0.06135845 0.2821732 -0.16132376 0.26491198
-1.0719053 0.20315044 -0.5786037 -0.17038965 0.1057336 -0.9109027 0.28364605 0.010314946
-0.42560837 -0.49882114 0.76005226 0.37629023 -0.04057984 -0.19865689 -0.22116414 0.1526294
-0.017198555 0.42642373 -0.19656263 0.08543058 -0.14000784 -0.2047136 0.8294278 -0.4437224
0.17570756 -0.1962789 -0.4725142 0.8707809 -0.09009458 0.54781663 -0.04293034 -0.7102303
0.430505 0.7493193 -0.22230883 0.550739 0.31025705 -0.6839428 -1.1299607 0.57984805
0.105230115 -0.102408096 0.30308124 -0.05057222 -0.31651217 -0.07354163 -1.5515714 0.19275476
-0.5548031 0.23681104 0.31795582 -0.5223984 -0.70921695 -0.833999 -0.22998403 -0.12477147
0.5842898 -0.41322005 -0.79033196 -0.2657551 -0.7910923 -0.006034222 0.046291392 0.31433204
0.30568942 -0.36070555 0.31225774 -0.3795963 -0.7495335 0.11008906 -0.48760507 -0.53422266
-1.040061 0.06383752 -0.13054776 0.0041750483 0.03430732 -0.23001826 0.17133638 -0.14035894
-0.5475909 -0.15591963 -0.6055081 -0.7161073 -0.8154695 -0.238773 -0.56364053 -0.77357024
0.036216453 -0.55897987 -0.13393487 0.14776762 -0.25063428 -0.16028106 0.06664517 0.034010734
0.19251937 0.0007684332 -0.7692552 -0.44442263 0.14250791 0.579257 -0.16231993 0.12625715

bias f4 [128]
00000000: 720d 0abe e83b be3d 36d8 9cbd 28e7 a23c
00000010: 203e 07be 2d30 303c a183 65bd 7a18 233d
00000020: 2f05 08be 69a1 863c a8d1 da3d c2bf c7bb
00000030: 0a31 c13d 3400 253e de29 033c a0e8 323d
00000040: f586 55bd 3acc a73d 1b29 8a3d d99b a2bc
00000050: 4eab b13d 1961 94bd 85cf 913d e3b2 833c
00000060: af6c 673c 448d 423d eddd f13c cda4 1f3e
00000070: 6c63 88bd 2a8c dbbd e9af dc3c 4699 e2bd
00000080: fea6 9c3d 8577 46be 6a09 11bd ea72 b4bd
00000090: aedc a03d 3561 b5bd dbab 11bd 81d1 063e
000000a0: 1db4 a0bd ea24 113e 4011 973d c77c 22bd
000000b0: 01f5 3bbd 9def 703d 3120 99bd 19c1 b83d
000000c0: 4e53 26bc 50fc 063e 6510 d3bd 75c0 853d
000000d0: c0fd cc3d 7e85 6abd 5596 d5bd 997e db3d
000000e0: 064f b1bb 720f cebd bf0e 08be 9a9d 613d
000000f0: 5cc4 c53d 5b1a 0b3e 946e f0bc 8f3a c8bd
00000100: edec c3bd 2a5b 9fbc dd4d 94bd 28e2 14bd
00000110: c998 1a3e e2d9 90bd 22f1 ed3d 9651 f0bd
00000120: e200 0cbd 5a1c b3bd a665 f83d c85b 8fbd
00000130: 3780 07be e346 f8bc 04ba 413c 14ad 76bd
00000140: 8b80 2c3d d468 86bd 101f 86ba f823 d83d
00000150: b314 1cbd 75a2 cc3d 417c 01bd 7feb 93bc
00000160: 75fd 0a3d f022 523d c8ad 7bbd df49 273d
00000170: a54d 993c d829 01bd 54b8 b3bd 41a0 7d3d
00000180: 8f7c 10bd 7319 6fba a81d 323e 79a8 433c
00000190: 00c1 f0bd 96bc a2bb 9263 a2bd b9f2 ee3c
000001a0: 4b43 36bd 0283 cc3c de9b 67bc 1df4 d53d
000001b0: b773 9f3d 6ab9 94bc 7812 5ebd 36a9 683c
000001c0: bfec 1fbd e4cf d0bd 7fc7 edbd 1141 a3bd
000001d0: 502c ca3d fb2c 6c3d c99b 0dbe fc74 dfbd
000001e0: c8e8 823d db11 213e 2883 cd3d bf30 21bd
000001f0: e82f a13d 28f2 f6bd bc71 f43d 2ee1 b7bd
-0.13481691 0.0928877 -0.076584265 0.019885615 -0.13207293 0.0107536735 -0.056033734 0.039818265
-0.13283227 0.016434388 0.1068452 -0.0060958574 0.094331816 0.16113359 0.008005587 0.04367888
-0.05213066 0.0819325 0.067461215 -0.019849705 0.08675252 -0.072450824 0.07119659 0.01607651
0.014125033 0.047498003 0.029524768 0.1559021 -0.06659588 -0.107200935 0.02693935 -0.11064391
0.07649039 -0.1938153 -0.03540937 -0.088109806 0.07854591 -0.088564314 -0.035564285 0.13165857
-0.07846854 0.14174238 0.07376337 -0.03966978 -0.04588795 0.058822263 -0.07476843 0.090212055
-0.010151697 0.13182187 -0.103058614 0.06530849 0.100093365 -0.057256214 -0.10429064 0.10717506
-0.0054110317 -0.1006154 -0.13286875 0.05508194 0.09656593 0.13584273 -0.029349603 -0.09776794
-0.095666744 -0.01945265 -0.07241414 -0.036348492 0.15097345 -0.07072808 0.11618258 -0.11734311
-0.03418053 -0.08745642 0.12128763 -0.06999928 -0.13232504 -0.030307239 0.011824135 -0.060223654
0.042114776 -0.06562963 -0.0010232646 0.105537355 -0.038105678 0.09991924 -0.03161264 -0.01805663
0.03393312 0.05130285 -0.061445028 0.040841933 0.018713782 -0.031534046 -0.08775392 0.06192041
-0.03527504 -0.00091209187 0.17394125 0.0119420225 -0.11755562 -0.004966329 -0.07929148 0.029168474
-0.04449777 0.024964813 -0.014136283 0.104469515 0.07785743 -0.018154819 -0.054216832 0.014200499
-0.039044138 -0.10195902 -0.116103165 -0.07971395 0.09871733 0.057660084 -0.13828959 -0.10910985
0.06392056 0.15729468 0.10034782 -0.03935313 0.078704655 -0.120579064 0.119357556 -0.089784965

weight f4 [128]
00000000: 45be b03f 5b80 5e3f bdc8 993f 77ff 803f
00000010: 29ca 943f 9b28 6c3f 0439 a23f 7149 8d3f
00000020: 4dfa 9e3f 0c71 9e3f a45a 9c3f 1617 af3f
00000030: a72f 9d3f 6e0b d93f 4f85 963f 3622 963f
00000040: af30 e93e f2a9 923f 1114 a83f 297d b13f
00000050: e2a2 693f a35f 5f3f 748f 623f bc89 4f3f
00000060: 180a a03f 6fc8 8d3f b679 843f 5081 803f
00000070: 5f47 993f 1f9b 9e3f 33a4 843f 91ce 8e3f
00000080: 3203 323f 15ee cd3f 5d88 a83f 1414 dc3f
00000090: 3884 9b3f a2ac b73f ede7 603f 1d5e a33f
000000a0: 8a64 b03f a078 963f 616f e83f 50bf 993f
000000b0: 6eb2 d43f 36d0 883f ceba ad3f c117 ad3f
000000c0: d151 703f ce52 c53f 4459 823f 7c47 873f
000000d0: e1a5 a43f f7ac b53f 6068 9a3f 0753 9d3f
000000e0: 8ae1 fc3f aee7 9c3f 829e c83f 0495 f03f
000000f0: bdb9 af3f 516a 993f 3999 233f fe20 723f
00000100: db08 b73f d2c5 533f 22b5 d13f d467 b93f
00000110: 9a83 b03f 30ce 823f ac76 303f 5e0e bc3f
00000120: eb6a a43f 3479 983f 58ff b53f 4f69 6b3f
00000130: a7e5 143f fd7b a43f d24b b43f fd7b 343f
00000140: 32ed 993f 0c45 993f 6801 253f 7355 af3f
00000150: f244 7b3f 94e4 4a3f 341d 963f 28c1 ab3f
00000160: 5dfc a23f 725c 463f f004 c43f 42b4 b63f
00000170: faa3 ad3f 2367 753f eb9b 2d3f 812e ba3f
00000180: 39d7 793f 4f85 b63f 1c44 ad3f b4a2 883f
00000190: 5d1d 153f 9797 8b3f a4db 913f b543 8d3f
000001a0: 6550 9f3f d44f bd3f 5219 e83f c5fb 803f
000001b0: c792 9b3f 1b14 a53f 998b 8a3f 9a4b 9f3f
000001c0: 01fa aa3f b18b 833f 89dc 263f 5fd4 9c3f
000001d0: 9d8c cd3f 7d76 8c3f 666d 9a3f 60a7 9c3f
000001e0: 5932 8e3f 9575 973f ae1b 5f3f a3b1 893f
000001f0: d0ee db3f 9810 833f d867 b23f fb8f b03f
1.3808066 0.86914605 1.2014385 1.0077962 1.1624194 0.9224946 1.267365 1.1038038
1.2420136 1.2378249 1.2215161 1.367892 1.2280167 1.6956613 1.1759433 1.172919
0.45544955 1.1458113 1.3131124 1.3866321 0.91264164 0.87255305 0.8850014 0.8106954
1.250308 1.1076792 1.0349643 1.0039463 1.1974906 1.2391089 1.036261 1.1156789
0.69536126 1.6088282 1.3166615 1.7193627 1.2149725 1.4349558 0.8785389 1.2763096
1.3780682 1.1755562 1.815899 1.2011509 1.6616952 1.0688541 1.3572633 1.3522874
0.9387484 1.5415895 1.0183492 1.056869 1.2863122 1.419341 1.2063103 1.2290963
1.9756329 1.2258203 1.5673373 1.8795476 1.3728558 1.198557 0.63905674 0.9458159
1.4299577 0.82723725 1.6383402 1.4484811 1.3790162 1.0219173 0.6893108 1.4691885
1.2845129 1.1911988 1.421855 0.91957563 0.5816292 1.2850338 1.4085639 0.7050169
1.2025511 1.1974196 0.6445527 1.3697952 0.9815208 0.7925503 1.1727662 1.3418322
1.2733265 0.7748481 1.5314007 1.427376 1.3565667 0.958605 0.67816037 1.4545442
0.9759403 1.4259433 1.353641 1.0674653 0.5824793 1.0905637 1.1395154 1.1036288
1.244641 1.4789987 1.8132727 1.0076834 1.2154168 1.2896761 1.0823852 1.2444947
1.3357545 1.0277005 0.6518026 1.225231 1.6058537 1.097366 1.2064636 1.2238579
1.1109115 1.1832758 0.8715161 1.0757335 1.7182255 1.0239439 1.3937941 1.3793939

bias f4 [128]
00000000: f653 85bf 219e f3bd ee47 d3be dbda 2dbf
00000010: 7b8e cdbe 6df8 a7bd 6978 52bf e339 363d
00000020: 3a71 7cbf 975b 38bf 6d3c e4bd e715 6cbf
00000030: 0f11 1abe 04ad 66bf a06f 06be e580 21bf
00000040: a16b 98bc 80ce a6be d1f9 3fbf 3e5c 56bf
00000050: 5405 5bbe 4610 a3be acca 03bf be15 50bf
00000060: 6b21 10bf f4af d8be 992d a23d 5fbf 33bf
00000070: b437 ccbe 0176 1abf bf31 53be 30b4 56be
00000080: eb92 93bf fdcd 5bbf 75ce 27bf b4c1 6fbf
00000090: 3143 10bf 0ca8 84bf a2a7 c6bd decb 94be
000000a0: 984c 15bf d83b 48bf 2193 45bf 5c97 07bf
000000b0: 88a3 47bf fa2e b13d 4c4c 94bf 69b4 95be
000000c0: 90dd 343e 2174 5bbf c21e 72be e264 30bf
000000d0: 5ffc e6be 5ca1 a9be 9d7b d0be c106 08be
000000e0: 3ffd 96bf 59b5 edbe cca3 2dbf 082e bebe
000000f0: 516d 57bf e4de 06bf 6049 74bd a4a2 05bf
00000100: 49c1 85bd e7aa 6cbe 1098 e7be a672 16bf
00000110: 256b 67bf 8324 01bf 4d1f c53d a915 b3be
00000120: 1c95 65bf 4128 e8be 7d96 46bf d4f4 34be
00000130: 7457 9dbe 4694 d0be 642d 4abf 79cf 4cbe
00000140: 026b 33bf 4906 29bf 574c afbd 24c9 1bbf
00000150: 4c89 8ebf 5335 ca3d c732 29be e8ee 26be
00000160: d60e 2ebf e324 423c 8a74 a9bf 6b40 ecbe
00000170: d94d 84be 95a2 e8bd 5597 91be 94b8 abbe
00000180: 042a dc39 accc 41bf f2d5 85bf 6d6f 92bf
00000190: e0e8 123e d7a8 ecbc f3d7 25be d1aa c0be
000001a0: d388 62bf ee14 e3be f1f2 cdbe ae5a 1dbf
000001b0: 3979 85be d212 33be 260f f6be 6ac7 d7bd
000001c0: c546 aa3c ddc4 26bf 3856 86be d3a6 ecbe
000001d0: e55f 88be 9ee7 56bf b347 b5be 2295 83bd
000001e0: 377b 02bf 9575 34bf c1d2 b2be 7dce a3be
000001f0: c0cb 26bf 831f 94be dded 24bf f810 a6bf
-1.0416248 -0.11895395 -0.41265815 -0.6791207 -0.40147766 -0.0820168 -0.8221498 0.0444888
-0.9861027 -0.72014755 -0.11144338 -0.9222092 -0.1504557 -0.9010775 -0.13128519 -0.630873
-0.018606009 -0.32579422 -0.74990565 -0.837345 -0.21388751 -0.31848353 -0.5148113 -0.81283176
-0.5630099 -0.42321742 0.07918853 -0.70213884 -0.39886248 -0.6033631 -0.20624445 -0.20967174
-1.1529211 -0.8586119 -0.65549403 -0.9365494 -0.56352526 -1.0363784 -0.09699942 -0.29061788
-0.5832 -0.78216314 -0.77177626 -0.5296533 -0.77983904 0.08651538 -1.1585784 -0.29239205
0.17662644 -0.85724074 -0.23644546 -0.68903935 -0.4511442 -0.3313092 -0.4071931 -0.13283826
-1.1796035 -0.4642742 -0.6782806 -0.37144494 -0.8415118 -0.52683854 -0.05964029 -0.52201295
-0.06531007 -0.23112069 -0.45233202 -0.5876869 -0.90397865 -0.5044634 0.09625111 -0.34977463
-0.8968065 -0.4534321 -0.77573377 -0.1767152 -0.30730784 -0.40738124 -0.7897551 -0.2000102
-0.70085156 -0.66025215 -0.085594825 -0.6085379 -1.113565 0.09873452 -0.16523276 -0.16302073
-0.6799139 0.011849615 -1.323869 -0.46142897 -0.25840643 -0.11359135 -0.2843577 -0.3353926
0.00041992974 -0.7570293 -1.0455916 -1.1440254 0.14346647 -0.028889103 -0.1619566 -0.37630323
-0.8849003 -0.44351906 -0.40224412 -0.6146649 -0.26069048 -0.17487648 -0.48058432 -0.10536082
0.020785699 -0.6514414 -0.26237655 -0.46221027 -0.26635662 -0.8394717 -0.35406265 -0.06424929
-0.5096926 -0.70491916 -0.34926417 -0.31993476 -0.6515465 -0.28930292 -0.6442545 -1.2973928

running_mean f4 [128]
00000000: 18ea 91be b6f8 ce3e 3cb0 4fbf 7656 54c0
00000010: d39f b6bf 4998 03bf e236 7cc0 3ce3 19bf
00000020: 884a 82c0 8846 cdbf b4bc a23f 0a61 11c0
00000030: f0cd ddbe aad1 ecbf 4e36 45be bc82 2b40
00000040: 097e e13d c22b 5dc0 b698 1dc0 fe72 23c0
00000050: 170f 0ebe b187 d6bf 0ba9 8f3f e3ad 943e
00000060: a34d 8c3d fd35 9fbf 5f9c bd3d ee1b e93f
00000070: 674c 53c0 e0e6 1ac0 91a7 b4bd c541 e0be
00000080: 6c22 17c0 d37d cfbf 928f c23f 0753 dfbf
00000090: ed29 2ec0 aae2 75c0 99e9 abbf 6f96 82bf
000000a0: 0538 c3bf 4472 e0be d4bc 29bf 8aea b4bf
000000b0: b865 6fc0 5605 43c0 4b8d a23c f433 f83f
000000c0: d2f5 13c0 b08d 40c0 f1db 0ec0 bd5d c4bf
000000d0: a67b 10bf cef0 9ebf 9a84 e13f 778c 31bf
000000e0: 467c 18c0 5306 f9bf 300b d43f 5918 9ebf
000000f0: 1459 31c0 4332 f7bd 2c24 16bf 1c05 a73f
00000100: d746 8abf 559b adbf 5e22 ffbf 08b6 aebf
00000110: 4b40 37c0 be9f 8abf 3fcd 20bf 5570 68c0
00000120: eb2b a33f a64f 8b3f e283 fabf 766a 09bf
00000130: 293c 01c0 8601 49bf 515d e2bf 396e a5bf
00000140: 2219 16c0 4296 ac3f 9c28 05bf 1f79 15c0
00000150: 3a4b e63f ae0a 27be 54b2 89be 87a9 50bf
00000160: 374b 25c0 97ce d63e d436 423e 428f 1cbd
00000170: 05d6 8abf 9d6f 27bf adf5 3dc0 0d84 3640
00000180: 706f 083e 6e5e 27c0 21af 43c0 a52f 9abf
00000190: 002f 87bf 5fa1 35bf 148d 0d40 637a 653f
000001a0: 538e 18c0 c144 6e3e 2ce5 04c0 972c 0ec0
000001b0: c33d e53f 4414 443f 0de9 2a40 fffc a2bf
000001c0: ad75 a73f 6497 633e 17c8 c53f 5a03 07c0
000001d0: cd92 9abf bf77 d1bf 4dfe 66bf f540 29bf
000001e0: 352a 5bc0 2ddd e43f d2fb 6240 7d6f 9e3f
000001f0: c3a1 4abf 8e83 37bf dfea 2ac0 e90b 0bc0
-0.28498912 0.40424126 -0.8112829 -3.3177772 -1.4267524 -0.51404244 -3.9408498 -0.6011236
-4.071598 -1.603715 1.2713838 -2.2715478 -0.4332118 -1.8501484 -0.19258997 2.6798544
0.110103674 -3.4557958 -2.4624457 -2.5538936 -0.13872944 -1.676016 1.1223463 0.29038915
0.068507455 -1.2438351 0.09258341 1.8211648 -3.3015382 -2.4203415 -0.08821023 -0.43800178
-2.361476 -1.6210274 1.5200064 -1.7447213 -2.721309 -3.8419595 -1.3430663 -1.0202159
-1.5251471 -0.43837178 -0.66303754 -1.4134076 -3.7405834 -3.0472007 0.019842764 1.9390855
-2.3118787 -3.008648 -2.2321742 -1.5341107 -0.5643867 -1.2417238 1.7618592 -0.6935496
-2.382585 -1.9455055 1.6565914 -1.235118 -2.771062 -0.120701335 -0.58648944 1.3048434
-1.0802869 -1.3563029 -1.9932363 -1.3649302 -2.8632991 -1.083 -0.6281318 -3.6318562
1.2747778 1.0883682 -1.9571497 -0.5367807 -2.019297 -0.7851795 -1.7684728 -1.2924262
-2.345284 1.3483355 -0.5201509 -2.3355176 1.7991707 -0.16312668 -0.26893866 -0.8150868
-2.5827157 0.4195449 0.18966228 -0.03822256 -1.0846564 -0.65404683 -2.9681199 2.8518097
0.1332376 -2.6151385 -3.057564 -1.204579 -1.0561218 -0.7094936 2.2117357 0.8963987
-2.3836868 0.23268415 -2.0764875 -2.2214715 1.7909473 0.7659342 2.6704743 -1.2733458
1.3082787 0.2222572 1.5451688 -2.1095796 -1.207605 -1.6364669 -0.9023178 -0.6611474
-3.424451 1.7879997 3.54662 1.2377774 -0.7915308 -0.7168511 -2.6705854 -2.172602

running_var f4 [128]
00000000: 42aa ec40 bc7b f640 8658 d240 f862 4841
00000010: 764f 2e41 1ff3 6741 badb ad41 8b20 d140
00000020: 9147 8941 6312 8d40 fde1 1f41 fb4f 3c41
00000030: 1863 5c41 c5cb 1641 7ad2 bc41 9a86 6241
00000040: 68c8 1641 1751 9341 5f6b 4b41 e711 2941
00000050: aa27 3741 18c9 3641 9dba 9b40 990d ca3f
00000060: 6e8a 9440 de37 4341 71f4 4941 8166 9a40
00000070: 45f6 9c41 8897 6041 7465 9c40 5c4f 4c40
00000080: 114e 1441 2b0d 0741 449b dc40 2899 0941
00000090: 9313 8341 97f8 8641 51bf 0741 e299 ab40
000000a0: 6b62 a740 a422 bf40 82a4 e140 19fd 3641
000000b0: bcc7 c041 c663 9c41 36be 0841 ae5d 2d41
000000c0: faa8 0d41 9988 4141 a9e8 f340 f601 9b40
000000d0: 3e53 3e41 5e85 a241 2492 0541 89f2 7941
000000e0: 2fae 1b41 8a97 0641 9b89 ec40 0241 2b41
000000f0: 653e 8541 9da4 c740 7e40 1841 5eca 3541
00000100: 5055 3241 3b57 2c41 2610 8441 aaf6 1541
00000110: cfec 7641 8c22 5441 0e1a c640 907b 9841
00000120: ea73 df40 1abb 3341 29a0 2841 ea3d a040
00000130: 0920 3541 1fbe 5641 2ea9 fa40 e669 7941
00000140: 7b0e c040 c5f3 f240 d14b fc40 2d9a 5d41
00000150: 32b9 4541 fe2c 5541 8e85 8e41 97fd 0141
00000160: 551d 7a41 eade 4c41 49bd ca40 54b6 7e41
00000170: 92ef 1b41 62a8 1a41 9adf 8c41 0e2d b541
00000180: 733b d441 8819 8b41 ec80 7e41 7489 8d40
00000190: 5f5e a040 24b2 9141 b090 d440 892d 7041
000001a0: f553 b440 cfa7 1d41 3223 8541 5b1d 7341
000001b0: b059 f640 2440 d140 f778 3941 a68f 3c41
000001c0: 2f8c 5641 bf85 b840 7a16 cc40 c607 3541
000001d0: c6de 3341 fb33 de40 aa78 9640 ff5b aa41
000001e0: 6fe3 8d41 b7ef e140 3d4e 5041 82bf f540
000001f0: e83b e040 cd1c 2a41 5958 7b41 9e86 b040
7.3957834 7.7026043 6.573306 12.524162 10.8944 14.496856 21.732288 6.5352225
17.159945 4.4084945 9.992673 11.7695265 13.774193 9.424748 23.602772 14.157862
9.423927 18.414595 12.713714 10.566871 11.447184 11.424095 4.86653 1.57854
4.641898 12.201139 12.622178 4.8250127 19.620249 14.036995 4.8873844 3.1923437
9.269059 8.440715 6.8939533 8.599892 16.384558 16.871382 8.484208 5.3625345
5.230764 5.9729786 7.0513315 11.436791 24.097527 19.548717 8.546438 10.835371
8.853754 12.095849 7.622151 4.8439894 11.895323 20.31512 8.348179 15.621713
9.730025 8.411997 7.3917975 10.703371 16.655466 6.2388444 9.515745 11.361906
11.145828 10.7712965 16.507885 9.372721 15.432815 13.258434 6.1906805 19.060333
6.9828997 11.233179 10.539102 5.007558 11.320321 13.421416 7.833152 15.588354
6.0017676 7.592257 7.884255 13.850141 12.357714 13.323484 17.815212 8.124412
15.632161 12.804422 6.335606 15.919514 9.745989 9.666109 17.60918 22.647
26.529028 17.387466 15.906475 4.423029 5.01152 18.211983 6.642662 15.011117
5.6352487 9.853469 16.642185 15.194667 7.698448 6.5390797 11.592032 11.78507
13.4092245 5.7663264 6.3777437 11.314398 11.241888 6.9438453 4.7022295 21.29492
17.736052 7.060512 13.019101 7.6796274 7.007313 10.632031 15.709069 5.516433

weight f4 [64, 128]
00000000: f1e2 873e 5f55 eb3d 80ff 563e e58f 403e
00000010: a6db a5bc aa6b 30be 2113 b43e 013e 113d
00000020: 3630 82be fdfb 8f3c 4aa1 1dbf d13b b2bd
00000030: ff41 1cbe fd79 403f 3dfd 703e dbe0 a7bc
00000040: 40da f9bd fe34 8cbc b2a2 b23e e8c8 9a3e
00000050: 7a7f eebe df2f 88be 081e 0bbe 7975 05bf
00000060: 56f8 1f3f b7eb 83bf 41a3 4fbc 119e 45bf
00000070: 28c1 c23e 8185 e0be 4fa3 3dbf 6a80 28bf
00000080: 89fd f4bd 020e 10be c503 89be ca92 173f
00000090: 1edf 2e3f 9252 493e 4026 85be 506f dabc
000000a0: e7a4 d8be 1943 d7be ba24 683f f12c c23e
000000b0: a905 d43b 6a68 2abf c531 0a3e ad7b 063e
000000c0: c6b2 7b3d 1a1e 923e 86c3 c63e 6a25 df3e
000000d0: 8916 c1be 6370 febe 0cfe 63bf 6cb3 89bd
000000e0: f04e 533f 764b 6e3e e6d8 c5be 5cfa 7dbe
000000f0: 38a6 923e 75cb 67bf 39d0 16bf 5b9d d2bc
00000100: 08a4 963d e49d 36be 6d14 e1bd 6bf9 03bf
00000110: 56a1 cd3e e772 e5bd fe9a 65be f709 f93e
00000120: ec40 82bf 0c82 1d3e 9ee6 e33e 6465 a3be
00000130: 3c61 c1be 2baf 583e fabe ca3e 1594 35be
00000140: 5d9b 693e 536b a4be 85a1 cfbd 97c7 ec3e
00000150: ec78 2fbf 84c9 11bf 73ff 79be 9adc 8c3d
00000160: cec5 39bb bf80 8cbe a195 14bf fee8 9b3e
00000170: ea7c 443e 4aaf b0bd bd13 0d3f a4ea ad3e
00000180: e3f8 20bd 0fab d1bc fc6d 183e 77fa 26bf
00000190: 38e2 f93d 7101 9abc 0490 57bd 6639 eaba
000001a0: 5252 47bf 5506 863e 5ffe 1bbe f285 fcbd
000001b0: b71f cdbf 770b 25bd 44d2 0c3f 382f 4fbe
000001c0: 3b13 4a3e 11ea 60bf 518c 84be 454b 1fbf
000001d0: 76bf c33e 17b7 ab3e c116 cbbf 8843 54bc
000001e0: a355 103f bae9 ffbe 637c 363e 7c7e 6bbc
000001f0: 354b 82bf 8d05 f5be 8a4a 573f b3d3 9dbe
00000200: 574a 9ebd bcd3 a7be 6df5 9c3c 7a08 803e
00000210: f13c aebe 6943 55bf c2e6 073f 2681 803d
00000220: 5ad1 f43e 4a41 8a3d 820c fcbe 6431 fbbd
00000230: abe5 91bf a80d 77be 67df 21bf d8fd fe3c
00000240: 7acd babe 4937 bb3d 0685 913e 59f0 193f
00000250: 5acb 00bf 5d4d 21bd 27bf 343e f27c ffbd
00000260: 89b6 9cbe b9bf cfbd 86f1 d8be da39 e9bd
00000270: 17eb 853e 4edb c0bc d2a2 13bf ad5c 603e
00000280: 2838 c13e 0d70 46be 53f1 043e a413 c7be
00000290: 869b 47bd 5071 d53e 6f1b b33b 6078 e83e
000002a0: f237 0c3c 8106 06bf 4309 bd3e 1470 8ebd
000002b0: fda4 c73e 46e5 9e3e 976d 5e3e 1b72 9c3d
000002c0: 2eaa e53e 5f28 ee3e 6118 c83e 61c0 573e
000002d0: 34b5 33bf 8ad3 04bf 0e8b 10bf 02c7 9fbf
000002e0: 2583 97be c8d2 bc3e 2cb7 87be a88b efbc
000002f0: 6593 253e e0d0 1d3e 6350 373e d700 a4b9
00000300: 187e 01bf 31f9 6ebe 5f48 353b 3d50 48bf
00000310: 7bc6 8a3e 3279 a8be c744 973d 9ceb 8f3e
00000320: 8c43 8f3d e194 07be 8e22 e2be fd7a 98be
00000330: 76cf d2bd 39dd 5dbe 707e bd3d e839 98be
00000340: fc89 0b3e 61de 023e d922 f6bd fee4 f5be
00000350: a15f 09bd bd1b c9bd 8ac1 61bf b461 043e
00000360: c539 223e 369c 25bd 6a44 893e 3682 adbe
00000370: b5f0 bbbe dfca 97bc 54cc 443e b2ab 1dbf
00000380: e30c febe 29b4 23bd 2b97 643e 9337 1bbe
00000390: 713a 99be 9ae4 d6be 45b9 3c3c 5509 5ebf
000003a0: 327f 51bf bd61 d4be 9ced 83be d21b da3e
000003b0: 82d5 debb 7cd5 623e 019a 853e 699e 5cbb
000003c0: dddb ccbe 4d87 a7bd fc9c a8bd 510e dbbd
000003d0: f0e5 423e 2cb4 c93e 47a4 b0bd c51b 5fbf
000003e0: 09ea 043f 6e31 06be 87ef 7b3c f955 7f3c
000003f0: 7ec0 03bf 91bc f9be ca2d 013f 751a ff3e
0.2654033 0.114908926 0.20995903 0.18804891 -0.020246338 -0.1722857 0.35170844 0.035459522
-0.25427407 0.017576212 -0.6157423 -0.08702815 -0.1525955 0.7518614 0.23534103 -0.020492962
-0.12199831 -0.017115112 0.34889752 0.30231404 -0.46581632 -0.26599023 -0.13585675 -0.52132374
0.62488306 -1.030631 -0.0126732 -0.77194315 0.38037992 -0.43851855 -0.74077314 -0.65820944
-0.119624205 -0.14067844 -0.26760688 0.5920836 0.683092 0.19660404 -0.26005745 -0.026664406
-0.4231331 -0.4204338 0.9068104 0.37924913 0.0064704013 -0.66565573 0.13495548 0.13133116
0.06144979 0.2853859 0.38821048 0.43583232 -0.37712505 -0.4969512 -0.8905952 -0.06723675
0.82542324 0.23270974 -0.38642043 -0.24802536 0.2864244 -0.90544826 -0.5891147 -0.025709799
0.07355505 -0.17833668 -0.10990224 -0.51552457 0.40162152 -0.112035565 -0.22422406 0.48640415
-1.0176063 0.1538164 0.44511884 -0.31913292 -0.37769496 0.21160571 0.3959883 -0.1773227
0.22813173 -0.32113132 -0.10138229 0.46246025 -0.6854389 -0.56948113 -0.24413852 0.06878014
-0.002834666 -0.27441975 -0.58040816 0.30451196 0.19188276 -0.08627184 0.55108243 0.3396808
-0.039299857 -0.025594262 0.14885706 -0.6522593 0.12201351 -0.018799515 -0.05262758 -0.0017869889
-0.77859986 0.26176706 -0.15233754 -0.123302355 -1.6025304 -0.040294137 0.5500834 -0.20232856
0.19733898 -0.87857157 -0.25888303 -0.6222423 0.3823201 0.33538124 -1.5866319 -0.012955554
0.5638067 -0.49983007 0.17820887 -0.014373418 -1.0179201 -0.47855797 0.8409811 -0.30825576
-0.07729023 -0.32778728 0.019159997 0.25006467 -0.3403087 -0.83305985 0.53086483 0.06274633
0.47815973 0.06750734 -0.49228293 -0.1226528 -1.1398214 -0.24126303 -0.6323151 0.031126902
-0.3648489 0.09141404 0.284218 0.60132366 -0.5031029 -0.03938042 0.17651044 -0.12475003
-0.30608013 -0.1014399 -0.42371768 -0.113879874 0.26155922 -0.023542073 -0.5767032 0.21910353
0.37738156 -0.19378681 0.12982683 -0.38882172 -0.048732303 0.41688013 0.005465917 0.4540434
0.00855826 -0.52353674 0.3692113 -0.06954971 0.38993064 0.31034297 0.21721493 0.076389514
0.448564 0.46515176 0.390811 0.2106948 -0.7019837 -0.51885283 -0.5646218 -1.2482607
-0.29592243 0.36879563 -0.26506937 -0.029241398 0.16169508 0.1541171 0.17901759 -0.00031281143
-0.5058303 -0.23337246 0.0027661545 -0.78247434 0.27104554 -0.32904965 0.07386165 0.28109443
0.069953054 -0.13240387 -0.44166988 -0.29781333 -0.10293476 -0.21666421 0.09252632 -0.2973168
0.13626856 0.12780143 -0.120183654 -0.4802627 -0.033538464 -0.09819744 -0.8818594 0.12927896
0.1584235 -0.040432177 0.26810008 -0.33888406 -0.36707082 -0.018529354 0.1921857 -0.6159011
-0.49619207 -0.039966736 0.22323291 -0.15157919 -0.299274 -0.41971284 0.011518781 -0.8673299
-0.8183471 -0.41480818 -0.2576722 0.4259935 -0.0068003545 0.2215175 0.26094058 -0.0033663756
-0.40011492 -0.081801035 -0.082330674 -0.1069609 0.19033027 0.39395273 -0.086250834 -0.8715175
0.5191961 -0.13104793 0.015376932 0.015584462 -0.51465595 -0.48776677 0.50460494 0.49824873
