src/models/best_simple_nn.pt (torch, 8818 bytes, 7 tensors)

weight f4 [64, 6]
0	0x3b5b175a	0.0033430667
1	0x3f6f6a97	0.9352202
2	0xbb00fcc3	-0.0019681908
3	0x3cf2b6b5	0.029628137
4	0xbfc54b93	-1.5413688
5	0xbf173a50	-0.5907335
6	0x3efb39c7	0.49067518
7	0x3e8cf67a	0.27531797
8	0xbe098419	-0.13429298
9	0xbd2e4d3a	-0.042554118
10	0xbff054dd	-1.8775898
11	0xbf079b61	-0.52971464
12	0x3f4b61b9	0.7944599
13	0x3e0e2d5f	0.13884495
14	0xbdf84c99	-0.12123985
15	0xb5de3bb9	-1.655767e-06
16	0xbfcbbe29	-1.5917407
17	0x3f6bf072	0.92163765
18	0x3f81e45f	1.0147818
19	0x3d9bf7c6	0.076156184
20	0x3ec12893	0.37726268
21	0xbeee5c73	-0.46554908
22	0xbf1ec03f	-0.62012094
23	0xbf9899d8	-1.1921949
24	0xbee4ccd6	-0.44687527
25	0xbde48dac	-0.11159834
26	0x3d863465	0.06552962
27	0xbe2fcf5e	-0.17168948
28	0xbfab11fd	-1.3364865
29	0xbf911167	-1.1333436
30	0xbe97aa5b	-0.29622158
31	0xbf347ef1	-0.705062
32	0x3e97ced9	0.2965
33	0xbdbd4cad	-0.0924314
34	0x3f446a8c	0.7672508
35	0xbd7f3c62	-0.062313445
36	0xbe87ed35	-0.26548162
37	0x3e115094	0.14190894
38	0xbd74d62d	-0.059774566
39	0xbea100a5	-0.31445804
40	0xbf44a52e	-0.76814544
41	0xbfeaf923	-1.835728
42	0x3f562aa8	0.8365884
43	0x3d4aa140	0.049470186
44	0x3d4ea9d7	0.05045494
45	0x3c9a3d98	0.018828198
46	0xbed1bc82	-0.40964133
47	0xbfbb912f	-1.4653682
48	0xbeeeab35	-0.46614996
49	0x3eaa7804	0.3329469
50	0x3df42819	0.119217105
51	0xbe9719c2	-0.2951184
52	0x3f345d15	0.7045453
53	0x40043ad2	2.06609
54	0xbede086b	-0.43365797
55	0x3d482131	0.04885978
56	0x3e23e3d3	0.16004877
57	0xbe47eda0	-0.1952424
58	0xbf7cd1eb	-0.9875781
59	0xbf83f1e9	-1.03082
60	0x3e45b248	0.1930629
61	0x3ea4ca9b	0.32185826
62	0x3e70ae52	0.23503998
63	0xbe72a156	-0.23694357
64	0xbe8dda5c	-0.27705657
65	0xbfa43f12	-1.2831748
66	0xbe6224e0	-0.22084379
67	0x3e9426de	0.28935903
68	0x3eb97cd8	0.3622806
69	0x3e10b54f	0.14131664
70	0x3ec498d1	0.3839784
71	0xbfcf961d	-1.6217686
72	0xbe6aa67a	-0.22915068
73	0x3f04e4ca	0.51911604
74	0x3f191521	0.59797865
75	0xbe2ed60a	-0.17073837
76	0x3edd9224	0.4327556
77	0xbf9ee9fa	-1.2415154
78	0x3e5c8959	0.21536769
79	0x3eaf1f0f	0.34203383
80	0x3e722092	0.23645237
81	0xbe8be089	-0.27319744
82	0xbee7a93d	-0.45246306
83	0xbf616944	-0.8805125
84	0xbefac09d	-0.48975077
85	0x3f1a279e	0.602167
86	0xbc9d474f	-0.019199042
87	0xbe53b216	-0.20673403
88	0x3b5d12f2	0.0033733216
89	0x3f86499c	1.0491214
90	0x3e997d9b	0.29978642
91	0x3e2ce148	0.16882813
92	0x3d28503f	0.041092154
93	0x3c2fecdc	0.010737624
94	0xbf4b678d	-0.7945488
95	0xbfefe1ce	-1.8740785
96	0xbd09e60d	-0.03366666
97	0x3ee1ec3a	0.4412554
98	0xbd65165c	-0.055929527
99	0x3e69440d	0.22779866
100	0xbe6319af	-0.22177766
101	0xbfe46c5e	-1.7845571
102	0x3f1dbf63	0.6162016
103	0xbd29672e	-0.041358165
104	0xbca380ce	-0.01995888
105	0x3c6befda	0.014400447
106	0xbfb925dd	-1.446468
107	0x3ff2b658	1.8961897
108	0x3f9ac128	1.2090197
109	0xbb55510a	-0.0032549524
110	0x3d79628b	0.060884994
111	0x3d364a47	0.04450443
112	0xbf35731a	-0.70878756
113	0xbfb4f0a8	-1.4135942
114	0x3d98254b	0.07428988
115	0xbee3a49a	-0.4446152
116	0x3d54565d	0.051840175
117	0xbe86f014	-0.2635504
118	0x3f98d605	1.1940314
119	0x3f017414	0.50567746
120	0x3e833789	0.25628307
121	0x3e34c990	0.17655015
122	0x3d1641be	0.03668379
123	0xbbadddb7	-0.0053059715
124	0xbebfefba	-0.37487584
125	0xc03fad04	-2.994935
126	0xbee7d96d	-0.4528307
127	0x3df00757	0.1172015
128	0xbd6c1c71	-0.05764431
129	0xbd2a5ae4	-0.041590586
130	0xbfb8f9ef	-1.4451274
131	0xbf7e71aa	-0.9939219
132	0xbedc7ec6	-0.4306547
133	0x3e578541	0.21046926
134	0xbf521c05	-0.82074004
135	0xbe96150d	-0.29312935
136	0xbed354ec	-0.41275728
137	0xbe60da9f	-0.21958397
138	0xbebaa57d	-0.36454383
139	0xbdbbdef1	-0.09173382
140	0xbf4eea22	-0.8082601
141	0x3efab1c2	0.48963743
142	0xbf5b59c5	-0.8568385
143	0x3e7a22cf	0.24427341
144	0xbe998647	-0.29985258
145	0xbedea6cb	-0.43486628
146	0xbe0c5280	-0.13703346
147	0x3e072800	0.13198853
148	0x3f455473	0.77081984
149	0xbf40ce9b	-0.75315255
150	0x3e6e256d	0.23256464
151	0x3ecab55f	0.395915
152	0x3e8c2074	0.2736851
153	0xbe9b171d	-0.30291072
154	0xbecda93a	-0.40168172
155	0xbfbeeee6	-1.4916656
156	0xbedc1d6d	-0.429912
157	0xbe3deaff	-0.18546675
158	0x3d1e4d96	0.03864821
159	0xbe15f37f	-0.14643668
160	0xbf8bcf68	-1.092267
161	0xbfa10b70	-1.2581615
162	0x3cca907e	0.024727102
163	0x3f618a07	0.8810124
164	0xbc89904b	-0.016792437
165	0x3d927973	0.07152071
166	0xbface086	-1.3506019
167	0xbf4f8bf6	-0.8107294
168	0x3d0488e8	0.032357126
169	0x3e90105a	0.28137475
170	0x3d19d959	0.037560795
171	0x3f12e648	0.5738263
172	0x3ef6f808	0.48236108
173	0xbf914278	-1.134841
174	0xbe1b8d1a	-0.15190545
175	0xbedc053c	-0.42972744
176	0xbde2bc11	-0.11071027
177	0x3f1a12a4	0.60184693
178	0x3ed1ed9d	0.41001597
179	0xbf7839c9	-0.96963173
180	0xbee1633e	-0.44021028
181	0xbf2459c9	-0.641995
182	0x3cda8b81	0.026677849
183	0x3d6b28a6	0.057411812
184	0x3f9927d3	1.1965278
185	0xbc8b73e4	-0.017023034
186	0xbf40a653	-0.7525379
187	0x3f1788ce	0.5919312
188	0xbcfc4dd6	-0.030798834
189	0xbe986737	-0.29766247
190	0x3f29a243	0.66263217
191	0x403e4498	2.9729366
192	0xbef399bd	-0.4757823
193	0x3ed79651	0.4210687
194	0xbd088146	-0.03332641
195	0xbeaa6db2	-0.33286816
196	0x3f1173a4	0.5681708
197	0x3fe21127	1.7661484
198	0xbe140b87	-0.14457522
199	0xbe50a006	-0.20373544
200	0x3e0369e8	0.12833369
201	0xbd6fbae4	-0.058527842
202	0x3e138dc9	0.14409555
203	0x400bb15b	2.1827
204	0xbedf122b	-0.4356855
205	0x3ee4c233	0.44679412
206	0xbd5ee84b	-0.05442075
207	0xbe969bb0	-0.29415655
208	0x3ebc063a	0.367235
209	0x3fcb0584	1.5861058
210	0x3cc7c093	0.024383819
211	0x3f26043d	0.6485022
212	0xbd1b0b00	-0.037852287
213	0x3dd78dd0	0.105250955
214	0xbf27f43a	-0.65607035
215	0xbf93d6c7	-1.154992
216	0xbe2db389	-0.16963018
217	0xbe3b223f	-0.18274783
218	0x3e1a241c	0.15052837
219	0xbdbe457c	-0.09290597
220	0x3e4cfc06	0.20018014
221	0x400ac592	2.1683087
222	0x3f472c6a	0.77802145
223	0xbdb36b28	-0.08760673
224	0xbe7b7bb1	-0.24558903
225	0xbe34ae82	-0.17644694
226	0x3f21d20d	0.6321114
227	0x3f406a15	0.7516187
228	0xbe3213f9	-0.17390431
229	0x3f9282c9	1.1446162
230	0xbcfd569c	-0.030925088
231	0x3d83ca0a	0.0643502
232	0x3e7c970d	0.24666996
233	0xbd8c10fb	-0.06839176
234	0x3b6fae86	0.003657253
235	0xbf11308d	-0.5671471
236	0x3dc43054	0.0957953
237	0xbebbc5c2	-0.36674315
238	0x3f914bf9	1.135131
239	0x3f0d47c6	0.5518764
240	0x3f182bb8	0.5944171
241	0xbd742122	-0.05960191
242	0xbc4773c0	-0.012173593
243	0xbbf4bc8c	-0.0074687656
244	0xbfbb7f89	-1.4648296
245	0x4021a708	2.5258198
246	0xbec805dc	-0.3906697
247	0x3ef0dbad	0.470426
248	0x3cd7e140	0.026352525
249	0xbe89de57	-0.26927444
250	0x3db33c7d	0.087517716
251	0x3f83ef4f	1.0307406
252	0xbe615f4c	-0.22009009
253	0xbafc5270	-0.0019250643
254	0x3df56ff0	0.11984241
255	0xbe0ae515	-0.1356395

bias f4 [64]
0	0x3e29cf2a	0.16582933
1	0xbe188979	-0.14896192
2	0x3e5662cc	0.20936126
3	0x3cc4dd9a	0.02403145
4	0xbea95199	-0.33070067
5	0x3d94f9e3	0.072742246
6	0xbd4a71e6	-0.04942503
7	0x3e9b4bf0	0.30331373
8	0x3e824c8b	0.25449023
9	0xbe8154b1	-0.25259927
10	0xbe71c724	-0.23611122
11	0x3e637962	0.22214273
12	0xbe1a77b8	-0.15084732
13	0xbe617afe	-0.22019574
14	0xbe1c808a	-0.15283409
15	0x3c7e2965	0.015512799
16	0x3c90b943	0.017666465
17	0xbe67d1a2	-0.22638562
18	0xbdc83458	-0.09775609
19	0xbe9e1fd9	-0.30883673
20	0x3ef36156	0.475352
21	0x3edf1637	0.43571636
22	0xbe3bb71a	-0.18331566
23	0x3dee7a9d	0.116444804
24	0x3d914daf	0.07094895
25	0x3d96537c	0.07340142
26	0x3de9160d	0.11381159
27	0xbcdce810	-0.026966125
28	0xbe88960e	-0.26676983
29	0xbe09c8dd	-0.1345553
30	0x3e61f501	0.22066118
31	0xbe061dc0	-0.13097286
32	0x3e585d0f	0.21129249
33	0x3d93f759	0.07224912
34	0xbea33331	-0.31874993
35	0xbe32a70f	-0.1744654
36	0x3f3c5751	0.73570734
37	0xbdaf4852	-0.08558716
38	0x3d9527e3	0.072829984
39	0xbe6caace	-0.23112032
40	0xbeac6394	-0.33669722
41	0x3eb18bf3	0.34677085
42	0x3f1b131e	0.60576046
43	0x3ec1af27	0.37828943
44	0xbe7b0e84	-0.24517256
45	0x3e6fcdf5	0.2341841
46	0x3e26f4ea	0.16304365
47	0xbeedab5a	-0.46419793
48	0x3f17db5a	0.5931908
49	0x3ea71e03	0.32640085
50	0xbe82207f	-0.25415418
51	0xbf4437ce	-0.7664765
52	0x3e1ff292	0.15619877
53	0xbe3a0fe9	-0.18170132
54	0xbf0e4d74	-0.55586934
55	0x3d880193	0.06640925
56	0x3de8a9f1	0.11360539
57	0x3ea31fca	0.3186019
58	0xbdccbd36	-0.099970266
59	0x3ee7673b	0.45195946
60	0x3dd4bdc2	0.10387756
61	0xbf07dc3d	-0.5307043
62	0x3ebbd813	0.3668829
63	0x3cf2ed0e	0.029654052

weight f4 [64]
0	0x3f80d6e0	1.0065575
1	0x3f958ec6	1.1684196
2	0x3f8715f7	1.0553578
3	0x3f81e292	1.0147269
4	0x3f940db8	1.1566687
5	0x3f2f999d	0.6859377
6	0x3f83f50a	1.0309155
7	0x3f808ac8	1.0042353
8	0x3f48fbd0	0.78509235
9	0x3f7b610d	0.9819496
10	0x3f16d5e0	0.589201
11	0x3f1b26dd	0.60606176
12	0x3ea68623	0.32524213
13	0x3f03b46a	0.51447165
14	0x3f66ae13	0.90109366
15	0x3f777fd0	0.966794
16	0x3f45505c	0.77075744
17	0x3f9cac2a	1.224004
18	0x3f7540ff	0.958023
19	0x3f464473	0.77448195
20	0x3f829ee1	1.0204736
21	0x3f83a6f5	1.0285326
22	0x3f1758da	0.5911995
23	0x3f21a645	0.6314433
24	0x3f3b5cf4	0.7318871
25	0x3f17f077	0.59351295
26	0x3f93ae00	1.1537476
27	0x3f7b537e	0.98174274
28	0x3f3292f6	0.69755495
29	0x3f3ba481	0.7329789
30	0x3f75842c	0.95904803
31	0x3f891037	1.0708073
32	0x3f6690f6	0.9006494
33	0x3f454c9b	0.77070016
34	0x3f48c941	0.7843209
35	0x3f591db2	0.84810936
36	0x3f5a8a55	0.8536733
37	0x3f73651f	0.95076174
38	0x3f45e009	0.77294976
39	0x3f215261	0.63016325
40	0x3f94d884	1.1628575
41	0x3f72fa83	0.949135
42	0x3f5a8e11	0.85373026
43	0x3f11acab	0.56904095
44	0x3f2dccea	0.678908
45	0x3f386235	0.7202485
46	0x3f64a9d6	0.8932165
47	0x3f0fe803	0.56213397
48	0x3f927abc	1.1443706
49	0x3eea1455	0.45718637
50	0x3f7ad89d	0.97986776
51	0x3f6e18ed	0.93006784
52	0x3f3f276a	0.74669516
53	0x3f073e6d	0.5282963
54	0x3f966f2b	1.1752676
55	0x3f06ba7d	0.5262831
56	0x3f7719d5	0.9652379
57	0x3f4c1d0c	0.7973182
58	0x3f6c640e	0.9234017
59	0x3f77a968	0.9674287
60	0x3ec7e8b5	0.3904473
61	0x3f7e5f8f	0.9936456
62	0x3f5aec40	0.8551674
63	0x3f837252	1.0269263

bias f4 [64]
0	0xbf2acad0	-0.6671572
1	0xbf5cffbe	-0.8632773
2	0xbf278184	-0.65432
3	0xbeff794e	-0.49897236
4	0xbef24222	-0.4731608
5	0xbf891ac7	-1.0711297
6	0xbe1df9ce	-0.15427324
7	0xbdd7dc60	-0.1054008
8	0xbebdbb53	-0.3705698
9	0xbf943a37	-1.1580266
10	0xbd917532	-0.07102431
11	0xbe18bf45	-0.14916714
12	0xbb40c9f0	-0.002941724
13	0xbd787f8b	-0.06066851
14	0xbf001a46	-0.5004009
15	0xbd9cf6ce	-0.07664262
16	0xbe83f922	-0.2577601
17	0xbf82a56f	-1.0206736
18	0xbda3f299	-0.08005256
19	0xbd9d3868	-0.07676774
20	0xbe2cdfe7	-0.16882287
21	0xbf355b64	-0.70842576
22	0xbeb3de5a	-0.35130578
23	0xbf2d0189	-0.6758047
24	0xbf3075e1	-0.6892987
25	0xbda12f31	-0.07870329
26	0xbebaca6c	-0.3648256
27	0xbf12c945	-0.5733836
28	0xbea3295f	-0.318675
29	0xbe96d1bc	-0.2945689
30	0xbf7b2a93	-0.9811184
31	0xbfb68b43	-1.4261249
32	0xbed40de0	-0.41416836
33	0xbee5066d	-0.44731465
34	0xbeb48009	-0.35253933
35	0xbeb7dc16	-0.359101
36	0xbef84e22	-0.4849711
37	0xbf23c889	-0.6397787
38	0xbf1effc4	-0.6210902
39	0xbd86adff	-0.06576156
40	0xbf77affc	-0.96752906
41	0xbed9fbd4	-0.42574942
42	0xbee101a5	-0.43946567
43	0xbe566089	-0.20935263
44	0xbf3e8b34	-0.7443116
45	0xbeb12e0e	-0.3460545
46	0xbf04ba84	-0.518471
47	0xbeca0d23	-0.39463148
48	0xbf9d121c	-1.2271152
49	0xbf23280d	-0.6373299
50	0xbd5097a5	-0.05092587
51	0xbe94beef	-0.2905192
52	0xbf3f240e	-0.7466439
53	0xbea58f29	-0.32335785
54	0xbf799a67	-0.97501224
55	0xbd887457	-0.06662815
56	0xbee08251	-0.43849424
57	0xbeba927c	-0.36439884
58	0xbf335eb4	-0.7006638
59	0xbd7dfc09	-0.062007938
60	0x3d80cb10	0.06288731
61	0xbf61e2e2	-0.8823682
62	0xbedf8f9f	-0.43664262
63	0xbe6846b9	-0.22683229

running_mean f4 [64]
0	0x3d3715bc	0.044698462
1	0xbef139f1	-0.47114518
2	0xbfa0a820	-1.2551308
3	0x3f45a30b	0.7720191
4	0x3df6e6fe	0.12055777
5	0x3ee8812e	0.45411056
6	0x3f9d2d4e	1.2279451
7	0x3faf9e1d	1.3720127
8	0xbf9c95ce	-1.2233217
9	0x3e809af0	0.25118208
10	0x3f40558a	0.7513052
11	0x3fe40b5e	1.7815969
12	0x3f8d4428	1.1036425
13	0x3eb2baa9	0.34908035
14	0xbf85595f	-1.0417899
15	0x3fa5f978	1.2966757
16	0x3fbaf1f9	1.4605094
17	0xc01da0a0	-2.4629288
18	0x3f4b36a9	0.7938028
19	0xbe84aa3a	-0.25911123
20	0x4039196f	2.8921773
21	0x3f3850b1	0.71998125
22	0xbe200b25	-0.15629251
23	0xbee08240	-0.43849373
24	0x3f85466c	1.0412116
25	0x3f9829c1	1.1887742
26	0x3f455243	0.77078646
27	0x3df10ee2	0.11770417
28	0x3f66742b	0.9002101
29	0x3f5ea629	0.8697229
30	0x3f3cc858	0.737432
31	0xc0199c52	-2.400166
32	0xbf885a72	-1.0652602
33	0xbfdec336	-1.7403324
34	0xbfc30052	-1.5234473
35	0x3f0c684e	0.54846656
36	0xbf8537e5	-1.0407683
37	0xbf00c9d9	-0.50307995
38	0x3e6ab344	0.22919947
39	0xbe76d76a	-0.24105611
40	0xc047c703	-3.1215217
41	0xbefce75b	-0.4939526
42	0xbf4f423c	-0.8096044
43	0x3f89a6cc	1.0754027
44	0xbf1a38e4	-0.6024306
45	0x3eeb6eb3	0.45982894
46	0x3f9a3214	1.2046533
47	0x3f565c01	0.83734137
48	0xbfe27e46	-1.7694786
49	0x3bb044ab	0.0053792796
50	0x3f99e307	1.2022408
51	0x3f35acdd	0.70966893
52	0xbf5986c6	-0.8497127
53	0xbe43ac12	-0.19108608
54	0x3fd23a6d	1.642408
55	0xbec8c130	-0.3920989
56	0x3dab5e41	0.08367587
57	0xbe5e94a7	-0.21736394
58	0xc0080e6f	-2.125881
59	0x3f6e3976	0.9305643
60	0x3f9fb8f1	1.2478315
61	0xbea12690	-0.31474733
62	0xbfbd12b7	-1.4771336
63	0x3fbb2f54	1.4623818

running_var f4 [64]
0	0x3ea252b7	0.3170373
1	0x3f1923f8	0.5982051
2	0x3f6b5109	0.91920525
3	0x3fcea114	1.6142907
4	0x3e963bc5	0.29342476
5	0x3e9a3fcf	0.30126807
6	0x3e08f476	0.13374504
7	0x3f82bcc6	1.0213859
8	0x3fa122be	1.2588727
9	0x3e3714a9	0.17878975
10	0x3e0454c8	0.12922966
11	0x3e750ab6	0.23929867
12	0x3f28148d	0.6565636
13	0x3e16b2df	0.14716671
14	0x3f935b59	1.1512252
15	0x3e9b7659	0.3036373
16	0x3dd22ff2	0.10263051
17	0x3f1ae220	0.6050129
18	0x4009cef0	2.1532555
19	0x3da904d5	0.08252875
20	0x3e953496	0.29141682
21	0x3e343e2b	0.1760184
22	0x3f0ed55b	0.55794305
23	0x3f1308db	0.5743539
24	0x3e1d3665	0.15352781
25	0x3e44f4cb	0.19234006
26	0x3e9c1502	0.30484778
27	0x3e8e3287	0.27772924
28	0x3e6c49bf	0.23075007
29	0x3ebdcb6d	0.37069264
30	0x3e8590c9	0.26087025
31	0x40314a9e	2.7701793
32	0x3fa53ede	1.290981
33	0x3dbe9bf4	0.093070894
34	0x3f8d5042	1.1040118
35	0x3e2f93c9	0.1714622
36	0x3dfc7c44	0.12328389
37	0x3f11685a	0.5679985
38	0x3fdeb759	1.7399703
39	0x3e1d8057	0.15380989
40	0x3f0697bc	0.5257528
41	0x3f50fd83	0.8163683
42	0x3e6a945b	0.22908156
43	0x3eba6e5f	0.3641233
44	0x3f2fd29b	0.68680733
45	0x3e59e911	0.21280314
46	0x3e2a604b	0.16638295
47	0x3d9dfd6e	0.077143535
48	0x3ddda7fb	0.10823055
49	0x3e2ba775	0.16763099
50	0x3f9b3e73	1.2128433
51	0x3d86a5a1	0.0657456
52	0x3f7e7eb2	0.9941207
53	0x3eae3e12	0.3403173
54	0x3e4eac6b	0.2018296
55	0x3ed63c06	0.4184267
56	0x3fb80c6b	1.437879
57	0x3fb54a67	1.4163331
58	0x3f8a8b79	1.0823814
59	0x3fa2110b	1.2661451
60	0x3f07e753	0.5308735
61	0x3e82af33	0.2552429
62	0x3f1bf1ef	0.60916036
63	0x3fcfad92	1.6224844

weight f4 [1, 64]
0	0xbee4f20d	-0.4471592
1	0xbec108a3	-0.37701902
2	0xbec011ba	-0.37513524
3	0x3eb27f48	0.34862733
4	0x3e98f329	0.29873016
5	0xbed464cd	-0.41483155
6	0x3e5be6e2	0.21474794
7	0x3e498b94	0.19682151
8	0x3e30a654	0.17250949
9	0x3f2963bc	0.6616781
10	0xbe21a7b6	-0.15786633
11	0xbde6b8e4	-0.11265734
12	0xbd3c3556	-0.045949303
13	0xbdddce84	-0.10830405
14	0x3e4262fd	0.18983074
15	0x3e5695a7	0.20955525
16	0xbe16f4c4	-0.14741808
17	0xbedd7566	-0.4325363
18	0x3e457ffb	0.19287102
19	0xbde42a24	-0.1114085
20	0x3e7689b6	0.2407597
21	0x3ed0ca27	0.4077923
22	0x3e23b28b	0.15986077
23	0x3ea837a0	0.32854939
24	0xbeb588a7	-0.3545582
25	0xbe21a128	-0.15784132
26	0x3ea2d5a0	0.31803608
27	0xbea57279	-0.32313898
28	0xbe0aaa78	-0.13541591
29	0xbdf9805d	-0.121826865
30	0xbf0052e9	-0.5012651
31	0xbfade4cf	-1.3585452
32	0x3e4bc061	0.19897605
33	0x3e62b878	0.22140682
34	0x3e3383ee	0.17530796
35	0xbe1d0ff1	-0.15338112
36	0x3e48aba2	0.19596723
37	0x3ea33449	0.31875828
38	0xbee7338a	-0.4515651
39	0xbe09cb34	-0.13456422
40	0xbef8998c	-0.48554647
41	0x3e430e19	0.19048347
42	0x3e34343e	0.17598054
43	0xbe20c2f8	-0.15699375
44	0x3ea18efe	0.31554407
45	0xbe0e98a0	-0.1392541
46	0xbe9ede6f	-0.31029078
47	0xbe207a35	-0.15671618
48	0x3f35987b	0.7093579
49	0xbe19e2ec	-0.1502797
50	0x3e4be54b	0.19911687
51	0xbe62048c	-0.22072047
52	0xbe7a72fd	-0.24457927
53	0x3dca021b	0.09863683
54	0x3f81f353	1.0152382
55	0xbddd9868	-0.10820085
56	0x3e338eab	0.17534892
57	0x3e550dec	0.20806092
58	0xbeb8f5fd	-0.36125174
59	0x3e48f958	0.19626367
60	0xbd956fdc	-0.07296726
61	0xbedb007b	-0.42773804
62	0x3e4e4586	0.20143709
63	0x3e59134a	0.21198764
