src/models/diamond_dnn.pt (torch, 40587 bytes, 31 tensors)

weight f4 [16, 6]
000000 fb 01 1a 3f 06 3c 6a 3d c7 23 01 3c 7b f2 3d 3d
       0.6015927 0.05718615 0.007882065 0.046373826
000010 45 71 55 be f0 99 5f be 60 ba 8b 3e 4b 4d f4 bd
       -0.2084399 -0.21836066 0.2729063 -0.11928805
000020 3c 9e dd be c9 e1 2c 3e 28 60 cd 3d 33 3e f1 3d
       -0.43284786 0.16883005 0.10028106 0.11779442
000030 c1 17 ef bd 24 8c 7b be 20 2a 30 bc d3 87 de bd
       -0.116744526 -0.24565178 -0.010752231 -0.1086575
000040 c5 04 58 bf 7a cc f8 3d 55 57 b5 3e 63 6f 7c 3c
       -0.8438228 0.12148376 0.35418192 0.015407416
000050 32 df 9e bd 3e 80 09 be 55 a8 9a 3d 39 5e 49 3d
       -0.07757415 -0.13427827 0.07551638 0.049162123
000060 a0 db dc 3b b0 0d e5 bd 26 67 6a 3b f2 c9 56 b9
       0.0067400485 -0.11184251 0.0035767048 -0.00020483861
000070 b7 13 97 3e 93 e1 f0 3e 0d d7 37 bc b9 17 43 be
       0.2950723 0.470471 -0.011220706 -0.19052018
000080 1e f5 a0 3b 7a e4 21 bd 0c 07 89 3e 09 62 ae 3e
       0.0049120327 -0.039524533 0.2676319 0.3405917
000090 5d f9 f5 3e 80 70 3d bd 78 73 28 3e d1 42 7a be
       0.48041812 -0.046249866 0.16450298 -0.24439551
0000a0 69 3f 7b bd ee aa 4b 3d 4e 04 d1 3c 13 c5 91 3e
       -0.06133977 0.049723558 0.025514748 0.28470668
0000b0 b1 ef c4 be c1 ff c2 39 e1 c4 18 3e 2f d3 dd 3e
       -0.3846412 0.00037193115 0.14918853 0.43325183
0000c0 fb cc 7f be 4a a2 e9 bd 6f d9 ca bd 00 f3 13 3d
       -0.24980538 -0.11407907 -0.099047534 0.036120415
0000d0 63 5f 16 bf b9 47 53 3e 37 51 b2 bc 71 da bb be
       -0.587393 0.20632829 -0.021767242 -0.36690095
0000e0 ce bb f4 3c 82 e1 a0 3e b7 89 8b 3c ae 5e 09 be
       0.029874709 0.3142205 0.017033441 -0.13415024
0000f0 79 4a 2f be 96 4c 12 3d 31 33 e7 bc 69 79 43 be
       -0.17118253 0.03571757 -0.028222652 -0.19089283
000100 7a f3 88 3e 7c aa 1e 3f 2c 6f 21 be 38 4e b5 3e
       0.26748258 0.6197889 -0.15765065 0.3541124
000110 e5 3a 46 bd 2a ed 1f 3e 60 15 a4 be e6 b7 6e be
       -0.04839601 0.15617815 -0.32047558 -0.23312339
000120 6f 11 12 3f 75 59 df bd 45 35 b5 3d e9 95 ca bd
       0.5705785 -0.109057344 0.08848051 -0.09891874
000130 14 9b d6 bd 7c f6 cd bd 25 5b 99 be 9c bf 66 3e
       -0.104787976 -0.10056779 -0.2995235 0.2253403
000140 4e 45 cd 3d a7 31 4f be a7 ed ff 3e e7 d7 e9 3a
       0.100229844 -0.20233785 0.49986002 0.0017840833
000150 55 26 cd be 9a d2 9e be 3e 6a c4 bc fb 17 9a be
       -0.40068308 -0.3102005 -0.023976441 -0.3009642
000160 72 01 64 be 45 6f 25 bf d8 15 c9 3e 4a 1f 6b be
       -0.22266176 -0.6462291 0.39274478 -0.22961155
000170 46 a6 9e 3d ca 1d a7 3e 90 50 46 be 72 81 08 3f
       0.07746558 0.32639915 -0.1936667 0.5332252

bias f4 [16]
000000 48 e2 af be fd cf a6 3e 15 5f 07 be 90 ab a6 3c
       -0.34352326 0.32580557 -0.13219865 0.02034548
000010 09 8b 30 be 61 ec 42 3e bb 8a 70 3c a3 97 e8 bb
       -0.17240538 0.19035484 0.014681513 -0.0070981546
000020 af 55 1a 3d f7 f7 27 be 0d 61 61 3d 7c 21 73 be
       0.03767937 -0.16403185 0.055024195 -0.23743242
000030 79 64 57 be 1e af cd 3e 17 8d 71 3e f1 15 8a 3e
       -0.21034421 0.40172666 0.23588978 0.26969865

weight f4 [16]
000000 f4 f8 86 3f af b7 6a 3f 05 a6 81 3f 13 f8 84 3f
       1.0544724 0.9168653 1.012879 1.0388206
000010 1c 5e 88 3f 68 da 66 3f 21 43 74 3f 46 1b 50 3f
       1.065372 0.9017701 0.9541493 0.81291616
000020 50 de 7b 3f da 1f 82 3f af 04 85 3f 0e a9 69 3f
       0.98386097 1.016597 1.0392054 0.9127358
000030 71 86 86 3f c0 2c 80 3f a0 7f 7e 3f d7 50 7b 3f
       1.0509778 1.0013657 0.9941349 0.98170227

bias f4 [16]
000000 a5 d7 72 be 1c d4 28 bd ac 03 ea bc e3 9c 98 3c
       -0.23715074 -0.04121791 -0.028566204 0.018629497
000010 42 3c 4c be b6 90 c3 bc ca fb 04 be 61 79 08 be
       -0.19944862 -0.023872714 -0.12986675 -0.13327552
000020 00 60 11 be f1 c3 24 bd 53 05 83 be e5 eb 84 be
       -0.14196777 -0.040225927 -0.2559 -0.25961223
000030 38 48 1a be d9 d1 a6 bd b0 6e 16 be be 15 fd bd
       -0.15066612 -0.08145494 -0.14690661 -0.123576626

running_mean f4 [16]
000000 e0 c7 6f be 87 a0 8e 3e 8b 2a 10 bf 97 a2 e8 3b
       -0.2341609 0.27856848 -0.56314915 0.0070994603
000010 8d 00 ec be 32 80 b0 3b 07 da 66 bd 8f 4d a8 be
       -0.4609417 0.005386376 -0.05636027 -0.32871673
000020 f4 77 bb be 18 13 bc bc c4 0f c4 be a0 3a 2e be
       -0.36614954 -0.022958323 -0.38293278 -0.17014551
000030 26 57 24 be 26 09 15 3f 69 bd 36 3f 24 79 82 be
       -0.1604887 0.58217084 0.71382767 -0.25483048

running_var f4 [16]
000000 a5 d2 c5 3e 55 91 59 3e a9 79 2b 3e ba 50 04 3e
       0.38637272 0.21246846 0.16745628 0.1292142
000010 10 e2 a6 3b ec 6e 54 3c 57 b9 99 3e 6e 5d 47 3e
       0.0050928667 0.012965899 0.30024216 0.19469234
000020 5d 4d 83 3d 61 89 47 3e 16 2d e8 3d db af 0a 3e
       0.0641124 0.19486 0.113367245 0.13543646
000030 04 ca dc 3e 20 4c b2 3e 98 48 61 3e c3 f9 a8 3e
       0.43122876 0.34823704 0.22000349 0.33003053

weight f4 [32, 16]
000000 ad 71 36 bd b7 ca 43 3e 63 73 f2 bd 77 ed 87 be
       -0.044542003 0.19120298 -0.118384145 -0.2654836
000010 cd 60 b8 3e fb 44 a9 3d e6 49 4c be 80 36 cf 3d
       0.36011353 0.0826511 -0.19950065 0.10117817
000020 62 da 4d be bd 92 0c 3e a9 fd 27 3e 8e a9 32 be
       -0.20102838 0.13727851 0.16405357 -0.17447492
000030 23 b2 43 3e b1 25 e3 bc d7 fc b9 3d e3 ed 72 3e
       0.19110923 -0.027727934 0.090814285 0.23723559
000040 f2 1d c8 bd 79 07 4b 3e c2 40 58 3e 5b 16 c1 bd
       -0.097713366 0.1982707 0.21118453 -0.09428092
000050 db 36 aa 3e c0 92 51 be 2f 66 01 3e 49 ed 5d 3e
       0.33244976 -0.20466137 0.12636636 0.21672548
000060 8a 5f 1e 3d 57 32 2a be bd 47 93 bd 98 16 a0 bd
       0.038665332 -0.16620766 -0.07191417 -0.078168094
000070 fa d1 b8 3d 95 4f 90 3d 7e 4a 1b 3e 92 6b 98 3d
       0.09024425 0.07046429 0.15165135 0.074423924
000080 8a f1 9d 3e ff 86 a3 bd 25 ea 85 bd 56 d2 43 be
       0.30848342 -0.07984733 -0.065388 -0.19123206
000090 d8 c0 01 be e0 25 9f 3d 78 20 f4 3c a6 cd 5c 3d
       -0.1267122 0.07770896 0.029800639 0.05390706
0000a0 66 ed 75 3e 7b 25 d4 bb 47 c5 49 3e f2 9f 99 bd
       0.24016342 -0.0064741946 0.19704162 -0.0750121
0000b0 6e 2b 45 3e 0b 36 b5 3d 4e 04 ff bd 94 47 39 be
       0.19254848 0.088481985 -0.12451993 -0.18093711
0000c0 f2 a9 33 3e e5 b6 05 3e f4 0e 0a be d8 ee 9c 3d
       0.17545298 0.1305805 -0.13482267 0.07662743
0000d0 fd c6 46 3e 03 59 6b be ee fc e3 bb 2c 8e 59 be
       0.19411846 -0.22983174 -0.006957642 -0.2124564
0000e0 bc 27 56 be 14 3a f6 bd 39 0b 25 3d 9d 26 87 3d
       -0.20913595 -0.12022796 0.040293906 0.06599162
0000f0 74 ff c9 3b 54 5c c4 bb 85 31 01 be 2e 95 b4 bd
       0.0061644856 -0.0059924517 -0.12616546 -0.08817516
000100 3b 81 22 be 50 ab cc 3d 2e a8 93 3e c8 55 56 be
       -0.1586961 0.09993613 0.28839248 -0.2093116
000110 44 7a 18 be 7c 15 1f 3d a5 ac 2d 3e 66 9b 31 be
       -0.1489039 0.03883885 0.1696039 -0.17344436
000120 61 95 d1 bc 5f d4 7f be 44 9b 37 bd 7b 7e 09 3e
       -0.025583925 -0.24983357 -0.044825807 0.13427155
000130 f0 57 52 be 9c 73 ca 3d 7d 3e 6e 3e 4c 9c e8 3d
       -0.20541358 0.09885332 0.23266025 0.11357936
000140 a3 74 87 bd a5 42 51 bd 06 84 ed bd 25 e7 8e 3e
       -0.066140436 -0.051088948 -0.11597447 0.27910724
000150 58 02 86 3b 21 76 eb bd 72 23 7f 3c 04 f4 51 3e
       0.004089635 -0.11497141 0.015572416 0.20503241
000160 59 7a 2a 3e bf 29 86 bd c4 62 5d be 5e c3 24 3d
       0.16648234 -0.06550931 -0.21619707 0.04022538
000170 d3 ff 39 3e ed 5c 46 3d 44 e4 1f 3d 3a 99 96 3e
       0.18163995 0.048428465 0.03903605 0.29413778
000180 57 d7 73 3c fd fb 69 be 67 09 db bd 5a c4 73 3e
       0.014882884 -0.22850032 -0.10695153 0.23805371
000190 4f 12 1d 3e ba e3 fc 3d 7b 89 07 3e ac 75 98 3d
       0.15339015 0.12348123 0.13236038 0.07444319
0001a0 0d c4 0d bd 00 01 56 be 76 65 0f bb 46 cd 65 3e
       -0.034610797 -0.20898819 -0.0021880544 0.22441587
0001b0 9b d1 45 3e 2c 01 41 3e 25 a2 53 3e a2 95 e8 3b
       0.1931824 0.18848103 0.20667322 0.0070979157
0001c0 f1 62 4a bd b2 f3 8b 3d 6f 16 31 be 7d de 83 3d
       -0.049410764 0.068335906 -0.17293714 0.06438921
0001d0 8b 0f b2 bd 22 bb c4 3c c1 82 0a 3e bd ad 4f bd
       -0.08694371 0.024015013 0.13526441 -0.0507028
0001e0 56 e0 a4 bd 7c db a3 3d cf 22 4c be 62 4c 2b 3e
       -0.08050601 0.08000848 -0.19935153 0.16728356
0001f0 42 26 38 3d 59 7f 95 3d 32 86 78 be cb b1 3f bd
       0.04495836 0.0729968 -0.24269941 -0.046800416
000200 eb 4a 26 be 8f 8b 05 3d 83 b7 ab bd 4c 79 0b be
       -0.16239516 0.032603797 -0.083846115 -0.1362049
000210 3b 0f b9 bd da fb 03 be d3 40 32 be fc 72 a3 3d
       -0.09036108 -0.12889042 -0.17407541 0.07980916
000220 fe 2c 86 be 6d af 1e be cb 6c de 3d 03 82 1d 3e
       -0.262062 -0.15496607 0.10860594 0.15381627
000230 95 f9 37 bd 85 ea 2e 3e bd a3 0a be f5 c9 f3 3d
       -0.044915754 0.1708165 -0.13539024 0.119037546
000240 91 60 e7 bd f8 4a 3b bc 18 84 9a bd 46 51 a3 3c
       -0.112977155 -0.011431448 -0.07544726 0.019936215
000250 80 1f fe 3d a9 b1 09 be 5c 29 8f be de a6 cf 3d
       0.12408352 -0.13446678 -0.27961242 0.10139249
000260 4d 6f 6c bd 4c 69 24 3e 13 42 84 3e 97 7a 06 be
       -0.057723332 0.16055793 0.2583166 -0.13132702
000270 2a 6f 36 be 1f 8a 4b 3e 26 6a 4d 3e 35 13 b3 3e
       -0.17815843 0.19876908 0.20060024 0.3497559
000280 5d 5b cf 3c 2e c2 d4 bd 1d 68 69 3d f7 1d 13 3d
       0.02531212 -0.10388599 0.056984056 0.03591725
000290 17 ef 02 3e e7 62 9d be d5 43 86 bd 87 cb 37 bd
       0.12786518 -0.3073952 -0.06555907 -0.044871833
0002a0 db 14 30 3e fc d4 0b bd 2e 3d 2f 3d 23 27 44 3e
       0.17195456 -0.034138665 0.042782955 0.19155554
0002b0 ac 22 78 be 41 da 26 be 93 4f 9e be c4 37 c8 bd
       -0.24231976 -0.16294195 -0.30920085 -0.097762614
0002c0 87 73 7e 3d 6d 1a dc 3c 35 e1 8b bd ed b0 00 be
       0.062121894 0.02686807 -0.06830064 -0.12567492
0002d0 d6 29 8f 3e 41 81 e9 bd 3e dc 4a 3d 33 1a bf 3d
       0.27961606 -0.11401606 0.049526446 0.09331169
0002e0 3c 4c 4b 3d 22 25 d0 3d db ec ea bc f1 06 91 3e
       0.04963325 0.101633325 -0.028677395 0.28325608
0002f0 8d c9 65 bd 9b 4e 6a bc c0 ba 70 bc c8 e0 08 bc
       -0.056100417 -0.014300968 -0.014692962 -0.008354373
000300 4f 08 0d 3e 28 8b 1d 3d 16 5d 88 bd 96 7f a0 bd
       0.137727 0.038462788 -0.0665838 -0.07836835
000310 d6 60 26 3d dc fb 8e 3b b0 cd fa bd 82 dc 0f 3e
       0.040619694 0.00436352 -0.12246263 0.14048961
000320 b0 76 07 3e ff a8 2e 3e f7 ef 21 be 44 7a 8e 3e
       0.1322887 0.17056654 -0.15814196 0.27827656
000330 db 65 1a be 94 9a ba bd f8 82 0b 3e ae 3b 2c 3e
       -0.15077917 -0.09111515 0.1362418 0.16819641
000340 04 bb 78 3d 01 58 ab 3d 13 a0 22 3d 74 4d f8 3d
       0.060725227 0.08366395 0.03970344 0.12124148
000350 cf bf 57 be 76 4a 2e 3e c3 bc 10 3e 2d 7e 6f 3d
       -0.21069263 0.17020592 0.14134507 0.05846994
000360 6a b3 fe bd f4 59 1a 3e 8e f6 bd bd 4b ae 23 3e
       -0.12436564 0.15073377 -0.09275542 0.15984456
000370 68 f8 5d 3e 5c 3a 90 3e 1c a2 13 bd 11 32 e0 3d
       0.2167679 0.28169525 -0.03604327 0.109470494
000380 08 40 fc bd 8d dd 1e be 7a e7 7c 3e fa 45 c3 be
       -0.123169005 -0.15514202 0.24697676 -0.38139325
000390 37 0e 2c 3e 4d 52 1b 3e c8 ca 72 be 68 02 03 3e
       0.16802298 0.15168114 -0.23710167 0.12793887
0003a0 42 84 24 3d 0f ce 5b be cd 22 2b 3c 34 24 ee bd
       0.040165193 -0.21465324 0.010445309 -0.11627999
0003b0 1f ed e6 3c 46 99 8f bb a5 50 35 3e c3 90 15 be
       0.02818924 -0.0043822853 0.17706545 -0.14606003
0003c0 71 56 a1 3e 56 9a e4 bd 12 51 03 3d 8a f4 2d be
       0.31511262 -0.1116225 0.032059737 -0.16987815
0003d0 93 8a 45 3e d4 aa 63 3e 99 26 c0 bc af 7a ea 3d
       0.19291143 0.22233135 -0.023455905 0.11449181
0003e0 84 74 75 bc 90 51 39 3e af f6 da bc 04 f5 55 3e
       -0.014981393 0.1809752 -0.026728956 0.20894247
0003f0 72 d3 46 3a 11 dd 94 3d 21 ea 48 bd e0 72 3b bd
       0.00075846084 0.072687276 -0.049051408 -0.04576385

bias f4 [32]
000000 73 ff b9 bd eb 54 04 be 99 97 7f be 9e 68 63 be
       -0.09081926 -0.12923019 -0.24960174 -0.22207877
000010 1a 13 0e bd b6 5a ec 3c 98 03 f0 3d 51 a1 76 bc
       -0.034686185 0.028851848 0.117194355 -0.015053109
000020 ea af 63 bd 37 1b d3 3d aa 00 28 be 3f 64 07 bd
       -0.055587687 0.10307925 -0.16406503 -0.033054586
000030 d9 ff 54 be 12 67 3a be 7a 27 28 be 54 d2 31 3e
       -0.20800723 -0.1820338 -0.16421309 0.1736539
000040 09 c9 16 bd d1 9e 4b be cc e6 70 3e 92 9b f3 3c
       -0.036812816 -0.19884802 0.23525542 0.029737268
000050 92 e3 27 be 78 85 6b 3e ac d2 ad bd f1 5c 00 3d
       -0.16395405 0.23000133 -0.08487448 0.031338636
000060 8e 87 75 bd dd 8e d2 bd b2 91 90 bd 7f 3d c0 3d
       -0.05994373 -0.10281155 -0.07059039 0.093867294
000070 17 69 ee bc f7 08 3a be 60 bb 69 be 8a b9 06 be
       -0.029102845 -0.18167482 -0.22825384 -0.13156715

weight f4 [32]
000000 a6 97 80 3f 7e 61 79 3f 41 6c 85 3f 90 b1 80 3f
       1.004628 0.97414386 1.0423661 1.0054188
000010 5c 56 69 3f 75 ec 84 3f 74 e5 87 3f a3 c6 70 3f
       0.911474 1.0384661 1.0616899 0.94053096
000020 ac e4 81 3f 67 a2 76 3f b2 46 6d 3f d2 08 82 3f
       1.014791 0.96341556 0.92686 1.0158942
000030 80 d0 6f 3f d0 86 88 3f fb 4e 8b 3f 12 81 6c 3f
       0.9367752 1.0666142 1.0883478 0.92384446
000040 45 af 83 3f 80 9e 85 3f 18 0c 86 3f 43 b6 8e 3f
       1.0287863 1.0438995 1.0472441 1.1149372
000050 f8 53 86 3f 43 21 79 3f 82 5e 76 3f 20 15 80 3f
       1.0494375 0.9731638 0.9623796 1.0006447
000060 cf c4 6f 3f 89 97 6a 3f ed 61 87 3f ab d2 7b 3f
       0.9365968 0.91637474 1.057676 0.9836833
000070 ed a3 82 3f 3c 20 66 3f 30 8b 72 3f 1a 1c 83 3f
       1.0206276 0.89892936 0.94743633 1.0242951

bias f4 [32]
000000 7e f4 0a bd 64 29 23 be b1 d8 8e bd aa a8 e7 3b
       -0.033924572 -0.15933758 -0.06974924 0.007069667
000010 7c fe 5a be 04 19 09 bc f6 c5 5e 3c e7 38 c5 bd
       -0.2138614 -0.008367781 0.013597002 -0.09629994
000020 3a 4d 2e bb 73 5e b2 bd 72 83 27 be c2 61 ea bd
       -0.0026596324 -0.08709421 -0.16358736 -0.11444427
000030 04 49 06 be 2f 83 58 bd 85 6f b9 bd 72 6a 75 3d
       -0.13113791 -0.05285948 -0.09054474 0.059915967
000040 62 69 f0 bd b5 b6 09 bd d6 5f 99 3c 6d 36 43 bb
       -0.1173885 -0.03362151 0.018722456 -0.002978708
000050 a3 bd 43 bd 8d 4b 86 bc 01 86 30 bd 58 33 14 bd
       -0.047788274 -0.016393447 -0.043096546 -0.036181778
000060 e6 ba e0 bd 3f 44 01 be d5 4b 0f bc db be bb bd
       -0.10973148 -0.1262369 -0.008746107 -0.09167262
000070 76 5c ee bd 0c 98 45 be a5 4a e7 bc 23 2b ea bd
       -0.11638729 -0.19296283 -0.028233835 -0.11434009

running_mean f4 [32]
000000 71 ad 99 3d 28 65 04 3e e7 90 2b be 1a 41 c6 be
       0.075037844 0.12929213 -0.16754495 -0.38721544
000010 61 0c 59 bd f0 77 81 3e ee eb d7 3e 01 62 e6 bd
       -0.05299032 0.25286818 0.42172188 -0.112491615
000020 83 5a a4 be 34 b5 8c 3e 39 60 db be 02 05 b3 3d
       -0.32100305 0.27481997 -0.4284685 0.087411895
000030 7b 83 5b bd 93 ad 57 3e bb 57 a6 be bf cb da 3e
       -0.053592186 0.21062307 -0.32488808 0.4273357
000040 73 a3 a5 bd 1a 8e 7a be 0c 25 ad 3e 56 b1 21 3d
       -0.08087816 -0.2446827 0.33817327 0.03947576
000050 60 8f 0e be 1d 7e cc 3e 06 aa a0 be 2b d7 83 be
       -0.1392188 0.39939967 -0.31379718 -0.25750098
000060 01 76 75 bd ae 80 12 bc 51 66 d3 be 7d 07 0b 3e
       -0.05992699 -0.008941812 -0.41289 0.13577075
000070 a1 7b 0e 3e 35 49 1d bf 72 27 28 be 08 4a 5b 3d
       0.13914348 -0.6143983 -0.16421297 0.0535374

running_var f4 [32]
000000 a4 f9 ff 3d 1c 6b 83 3d fc 49 2b 3d a1 34 1f 3e
       0.12498787 0.06416914 0.041818604 0.1554742
000010 8a 73 c9 3d 44 68 46 3d f9 7c 02 3e b1 13 73 3d
       0.098364905 0.04843928 0.12742986 0.05934495
000020 22 d9 60 3e 58 10 12 3e 99 96 16 3e 73 30 83 3d
       0.2195783 0.14264047 0.14705886 0.06405725
000030 53 22 9e 3d a0 84 d6 3d a9 e2 23 3e ad 5f 92 3d
       0.077213906 0.10474515 0.16004433 0.07147155
000040 52 48 82 3e 45 8b 8b 3d e6 79 a8 3d f0 d3 9e 3e
       0.254458 0.06813673 0.08226375 0.3102107
000050 48 cb 94 3d 98 b0 cb 3d 6a 18 4f 3e 1a 2c 28 3e
       0.07265335 0.09945792 0.20224157 0.16423073
000060 e9 90 69 3d 12 df e2 3d 4b 41 81 3e 57 56 96 3d
       0.057022963 0.110777035 0.25245127 0.07340687
000070 61 fe f6 3c d4 23 5f 3e 11 f3 4c 3d cc ad 71 3d
       0.030150594 0.21791011 0.050036494 0.059003636

weight f4 [64, 32]
000000 61 5e 1e be ba 6d 47 be 27 31 9b 3d 1f d1 2c 3e
       -0.1546569 -0.19475451 0.075777344 0.16876648
000010 76 41 89 bd cd 23 39 be 46 c2 c9 3d e5 f7 43 3e
       -0.06701939 -0.18080063 0.09851508 0.19137533
000020 34 f4 37 bd d8 fc 1d be 3b 3b 7c bc db ac 8b bd
       -0.044910625 -0.15428483 -0.015394981 -0.06820079
000030 d7 a5 c0 3d b2 d8 85 bd ba 63 1a be 34 71 30 be
       0.094066314 -0.06535472 -0.15077105 -0.17230684
000040 a5 33 aa bd 30 0d c3 3c 33 d5 ba bc 16 48 ab 3d
       -0.08310632 0.02381 -0.02280674 0.08363359
000050 f0 fa db 3c 52 fa 42 3e 75 39 82 bd ab 07 cc bd
       0.026853055 0.19040802 -0.06358615 -0.099624
000060 ce 07 a9 3d ad 28 af 3d c9 5c 49 3e fe 1c 0d 3e
       0.08253442 0.0855268 0.19664301 0.13780591
000070 d2 ff 5a 3d dc 20 60 bd 64 aa 0c bd 40 d6 2b 3d
       0.053466626 -0.054718837 -0.034342185 0.04195237
000080 15 d5 85 3d 03 b9 12 3e 48 a0 be 3c f0 e1 b4 bd
       0.06534783 0.14328389 0.023269787 -0.08832157
000090 48 e0 00 3d 41 7d 84 3d b6 ec 7c 3d 84 1e 03 3d
       0.03146389 0.06469203 0.061749183 0.032011524
0000a0 7f 0d 3a be a3 38 db 3d 60 77 1c 3e 02 39 81 3d
       -0.18169211 0.10704162 0.15279913 0.063097015
0000b0 42 f8 17 be 7a ee 88 bd a0 01 8a 3d c1 2c 89 3d
       -0.14840797 -0.06686111 0.06738591 0.06697989
0000c0 8e 30 62 3d 13 22 bf 3d 21 a2 d0 bc 12 07 0f be
       0.055222087 0.09332671 -0.025467934 -0.13967541
0000d0 d9 09 3a bd 39 0e 3a 3d 97 35 4f 3d 30 ce d3 3b
       -0.045419548 0.04542372 0.050588217 0.0064637884
0000e0 16 a9 da 3c 88 4c 34 3e e4 e8 2d 3d d5 65 44 3b
       0.026691955 0.1760732 0.04245843 0.0029967923
0000f0 3c fe 35 3e 54 42 53 bd 17 42 dd 3c 39 1c 82 3d
       0.17772764 -0.051576927 0.027009053 0.06353039
000100 d3 19 41 bd 5b 0f 1b 3e b3 72 1f be 2d 2f 80 3d
       -0.04714377 0.15142576 -0.15571098 0.06258998
000110 d8 98 21 be 3b b8 4f bd 6c 6a 0e 3d a6 58 10 be
       -0.15780962 -0.050712805 0.03476946 -0.14096317
000120 6f f4 90 bd e0 b7 39 be 78 dc 8a bd 06 fc df bc
       -0.07077872 -0.18136549 -0.06780332 -0.027341854
000130 92 a0 8d bd 24 4b 6f 3d 3c 5f 33 3d f2 70 c0 3d
       -0.06915392 0.05842127 0.043791994 0.093965426
000140 f9 fc 11 be 8d e1 66 bd b7 04 20 3e dd 6e 22 3d
       -0.14256658 -0.056367446 0.15626799 0.03965651
000150 0b 1b 48 be cf e1 cf bd 70 d0 08 3e 34 6e b5 3c
       -0.19541566 -0.101504914 0.13360763 0.022147276
000160 fd c6 eb 3d 80 d4 49 3e 0b d1 10 be d4 b0 21 be
       0.115125634 0.19709969 -0.14142244 -0.15790111
000170 19 53 5c bd 16 df 12 3e 7e e4 bc bd c2 7a 0f 3e
       -0.053790186 0.14342913 -0.09223269 0.14011672
000180 83 b4 19 3e 8e e7 96 bd 77 56 46 3e 49 7f 95 bd
       0.15010266 -0.07368384 0.19368921 -0.07299668
000190 c3 0f 0b 3e 06 78 15 3d 7d 78 25 bd 71 e7 aa bd
       0.13580231 0.036491416 -0.04039811 -0.08344925
0001a0 e1 f2 97 bc 6b fe 02 3b f5 32 2e be 52 af 8a bc
       -0.01854843 0.001998807 -0.17011626 -0.016929302
0001b0 8f c5 04 bd 1e 21 99 3d 18 e3 96 3c 95 5a f2 bd
       -0.03241497 0.0747702 0.018418834 -0.118336834
0001c0 b1 00 92 3d 87 68 77 3d e4 51 f4 bd d8 65 39 bd
       0.07129038 0.06040242 -0.11929682 -0.04526314
0001d0 89 79 ac 3c 79 a0 5e 3c b9 6b 1e bd 61 7c ad 3d
       0.021054046 0.013588064 -0.03867695 0.08470989
0001e0 94 7d 97 3b 58 eb 3a 3e c5 55 2d 3e 87 6a 0d be
       0.0046231244 0.18253839 0.1692725 -0.13810168
0001f0 e2 01 9a 3d 65 33 fc bd ce 58 02 be 7a c4 2d 3e
       0.0751989 -0.1231449 -0.12729189 0.16969481
000200 65 e1 83 bd 32 82 01 be 61 3b 75 3c f9 a3 17 3e
       -0.06439475 -0.12647322 0.01496777 0.14808644
000210 cc 75 a6 bd 4e 4d a5 bd 62 30 f9 bd 55 3e 30 3e
       -0.08127937 -0.08071385 -0.121674314 0.17211278
000220 5c cf a1 3d 33 d0 24 3e 98 59 98 bc d9 08 0f 3e
       0.07900879 0.16095047 -0.01859741 0.13968219
000230 26 d9 6b be ba 3f aa bd dd fa d6 3d 7b db 98 bc
       -0.23032054 -0.08312936 0.10497067 -0.018659344
000240 07 0e d6 ba a7 1d 54 3d 28 b4 49 bd 54 d1 f3 3d
       -0.0016331085 0.05178609 -0.049244076 0.119051605
000250 1b e6 97 3d 9b 2c 52 be 46 d3 91 3b fd 31 cf bc
       0.07416936 -0.20524828 0.0044502346 -0.025292391
000260 49 63 45 3e 2f ac c9 bd 50 42 e2 bd 3c df df 3d
       0.19276156 -0.098472945 -0.11047804 0.109312505
000270 91 53 50 bd df 47 f3 3d 22 d0 b0 bd 5a 6b 91 bd
       -0.050860945 0.11878943 -0.08633448 -0.07100554
000280 da f9 57 bd a5 18 ae 3d e5 f3 a9 3d f9 ea d8 3c
       -0.05272851 0.08500794 0.08298472 0.026479231
000290 0b b8 3e 3e f4 f5 9e 3d dc 69 b3 bd 40 e3 be bd
       0.18624894 0.077617556 -0.087604254 -0.09320688
0002a0 9e 15 42 3e 85 b5 de 3d a1 58 ee bd a0 8f 7a 3d
       0.18953559 0.10874466 -0.11637998 0.061172128
0002b0 dd 47 18 3e 34 2e 41 3d 3f c1 c6 bc 00 e5 74 bd
       0.14871164 0.047163203 -0.024262069 -0.059788704
0002c0 f4 33 9e bd d7 e8 1e 3d 10 f1 3a 3d bd d7 08 3d
       -0.07724753 0.038796272 0.04564005 0.03340887
0002d0 f6 c9 42 3e 00 57 2f be 3e 0e 95 bb 0b f9 ab bd
       0.19022354 -0.17123032 -0.004548817 -0.083971106
0002e0 ca 02 5a 3e 52 c6 e0 3d 21 c4 06 be 1e 34 a7 bd
       0.21290126 0.109753266 -0.13160755 -0.081642374
0002f0 34 26 f3 bd 5a 90 87 3b 42 5c 37 3e 00 79 2b 3e
       -0.11872521 0.004137081 0.17906287 0.16745377
000300 51 4c 0f 3e f4 24 ef 3d 89 6f 4b bd 47 fd a2 bc
       0.13993956 0.1167697 -0.049666915 -0.019896163
000310 b0 a1 e9 b8 db da 4d be b0 57 9f bd 67 7b 93 3b
       -0.000111404224 -0.20103018 -0.07780397 0.0045007947
000320 44 48 a2 bd 21 13 cc bd 70 e3 d3 3d 25 a0 a1 bd
       -0.0792394 -0.09964586 0.10346115 -0.07891873
000330 61 11 91 3d c3 63 9b be fd 0f b2 3c 3f 13 3e 3d
       0.07083393 -0.3034955 0.02173614 0.046405073
000340 13 98 66 be 88 ff 4b be d2 36 47 3d a1 16 74 bd
       -0.22518949 -0.19921696 0.048636265 -0.059591893
000350 75 65 33 bd b5 ae 8e ba e3 6d 32 3d 97 35 98 3d
       -0.04379793 -0.0010885807 0.043561827 0.074320965
000360 86 bf b2 3c 0b f2 2d be b7 55 7a 3d 41 51 a3 3c
       0.021819841 -0.16986863 0.0611169 0.019936206
000370 1c 86 36 bc 29 c8 84 3d fc 9d 42 3d cf 57 0d be
       -0.011140373 0.0648349 0.047513947 -0.13803028
000380 a5 7a 3d 3e 03 6c 9b bd 48 73 46 be 8d 76 73 3e
       0.18503816 -0.07588961 -0.19379914 0.23775692
000390 a6 91 8e bd 0a 82 ed 3d 7a 76 23 be 12 9b 0c 3e
       -0.06961374 0.115970686 -0.15963164 0.1373103
0003a0 b0 cb 04 be 28 d7 42 bc ea 14 84 bc 79 7e 2f bd
       -0.12968326 -0.011892118 -0.016123254 -0.042845223
0003b0 6f 95 06 be 59 d2 51 3c eb ad c3 bd 97 95 9d 3d
       -0.13142942 0.012806498 -0.095546566 0.076945476
0003c0 b8 62 8c bc 2f 8d aa 3d 22 0a da 3d a4 bf 91 bd
       -0.017136917 0.0832771 0.10646464 -0.07116631
0003d0 8d 79 10 be de 49 47 bd 82 c5 1d 3d 1b 25 94 bb
       -0.14108868 -0.04865443 0.038518436 -0.004521025
0003e0 ed 39 f7 3d 7e 78 15 be c4 b7 58 3e ca 7a 06 bc
       0.12071595 -0.14596745 0.21163851 -0.008207986
0003f0 f4 28 6e 3d f0 cb 9f bd a3 e8 87 3d 76 5f 00 be
       0.058144525 -0.0780257 0.06636169 -0.12536415

bias f4 [64]
000000 3e 0e 62 3d bd 2d d1 3d 4b 19 d8 bd a2 eb d6 bd
       0.055189364 0.10213802 -0.10551699 -0.10494162
000010 ea d8 eb bd 8a 0b 86 3d c2 b6 8f bd a3 6c cb 3d
       -0.115159824 0.0654517 -0.0701728 0.0993283
000020 65 3d 7c 3d 7b 83 d0 3d c0 92 06 3e c2 6a 7d bd
       0.061581988 0.10181328 0.13141918 -0.06186939
000030 51 87 8f bd 8a 22 85 bc 1f d7 24 3d d7 fd ab 3d
       -0.070082314 -0.016251821 0.040244218 0.083980255
000040 5e d9 b4 3d 33 24 3a 3e ca 42 81 3d 87 b0 0d be
       0.08830522 0.18177871 0.06311567 -0.13836871
000050 fb 70 03 be 3c 01 52 3d b0 68 45 bd 32 b4 6c 3d
       -0.12836067 0.05127071 -0.04819554 0.057789035
000060 a6 4b 30 be 68 3f fa bd 79 8e e4 3d f8 f0 8f 3d
       -0.17216358 -0.12219125 0.11159987 0.07028383
000070 c2 34 59 bc bf b0 54 bd a5 be 0c be 92 58 01 be
       -0.013257207 -0.05192637 -0.137446 -0.12631443
000080 52 da a3 bd c5 a3 e1 bd c2 ce 0d be 4e 52 80 bd
       -0.08000626 -0.11017565 -0.13848403 -0.062656984
000090 4c aa 0b 3d 3e bb 24 be 81 8c 35 bc 94 04 07 3e
       0.034097955 -0.16087052 -0.011080862 0.1318534
0000a0 5f c7 b9 3d 77 bd 7a bd 11 0e a4 3d e2 4a 87 bd
       0.0907123 -0.061215844 0.080104955 -0.0660608
0000b0 a2 06 d0 bd 7f 28 0d 3e 21 0a e5 3d 0f 86 2c 3c
       -0.10157515 0.1378498 0.111835726 0.010530009
0000c0 16 57 f1 bc 4b b3 86 bd 07 e6 87 bd b1 46 c4 3d
       -0.029460471 -0.06577166 -0.06635671 0.09583796
0000d0 20 2a 9e bd 20 60 d4 3d 48 b6 a4 bd 56 18 73 bb
       -0.077228785 0.10369897 -0.0804258 -0.0037093363
0000e0 53 e9 0d 3d 9d 04 cc bd b8 f9 15 be 04 de 08 be
       0.034646343 -0.099618174 -0.14646041 -0.13365942
0000f0 0b df d7 3d 12 7b e5 bc 10 6d 7a 3d 12 b2 f7 3c
       0.10540589 -0.028012786 0.061139166 0.030236278

weight f4 [64]
000000 f9 3a 7b 3f 09 eb 71 3f 0e cb 79 3f 9b 26 7a 3f
       0.9813686 0.9449926 0.9757546 0.9771516
000010 64 a9 84 3f 38 be 7c 3f c9 ce 83 3f c9 11 7a 3f
       1.0364194 0.9872775 1.0297481 0.9768339
000020 a1 20 7e 3f 15 32 71 3f 26 b5 6c 3f d8 65 79 3f
       0.9926854 0.94217044 0.9246391 0.97421026
000030 20 19 89 3f dc ac 83 3f f9 97 82 3f 3d ac 75 3f
       1.0710793 1.0287127 1.0202628 0.9596594
000040 30 96 82 3f 96 17 81 3f 66 29 86 3f 46 63 81 3f
       1.0202084 1.0085323 1.0481384 1.0108421
000050 c7 46 7e 3f 82 67 82 3f 4e b2 76 3f ef 5f 71 3f
       0.9932675 1.0187838 0.9636582 0.9428701
000060 04 2c 87 3f f4 4e 81 3f a9 a9 84 3f c9 18 7e 3f
       1.0560308 1.010222 1.0364276 0.9925657
000070 8c 4d 7f 3f 4a aa 77 3f 80 2c 84 3f 0b 37 87 3f
       0.997277 0.96744215 1.032608 1.0563673
000080 3c 0c 7f 3f 52 d8 80 3f 3a 3b 69 3f a7 f3 7f 3f
       0.99628043 1.0066016 0.91106 0.9998116
000090 bf d7 7d 3f 47 85 87 3f d2 6e 6e 3f be 4d 7d 3f
       0.9915733 1.0587548 0.9313785 0.9894675
0000a0 bb 30 75 3f 23 73 80 3f 4f 9a 7d 3f 5f 95 81 3f
       0.9577748 1.0035137 0.9906358 1.012371
0000b0 32 bc 7a 3f 73 b1 87 3f 75 83 83 3f 2e bf 83 3f
       0.97943413 1.0601028 1.0274493 1.0292718
0000c0 ed 88 7e 3f a3 03 71 3f 77 e6 74 3f 01 53 82 3f
       0.9942768 0.94146174 0.9566416 1.0181581
0000d0 2e 77 81 3f f9 a1 75 3f e9 47 79 3f 96 2b 85 3f
       1.0114496 0.95950276 0.9737535 1.0403926
0000e0 af 47 83 3f 30 44 89 3f 82 b5 79 3f 72 ba 89 3f
       1.0256251 1.0723934 0.97542584 1.0760024
0000f0 f2 7c 81 3f 91 52 79 3f 64 f0 80 3f 97 66 88 3f
       1.0116255 0.9739161 1.0073361 1.0656308

bias f4 [64]
000000 41 56 c2 bb 11 7c a7 bd 2f ce 1e bc 3d e7 8e bd
       -0.0059306924 -0.08177961 -0.009692713 -0.06977699
000010 ae 19 8e 3c 9f a6 84 bd 9d ee 4c 3d f1 f2 c3 3c
       0.01734623 -0.06477093 0.050032247 0.023919554
000020 f6 0e 3d bd b4 a9 f9 bd 3d ed a0 bc a8 f6 c9 bd
       -0.046156846 -0.121905714 -0.019644374 -0.09861499
000030 41 76 b1 bd a1 00 eb bd 05 92 e8 bc 5f b5 a0 bd
       -0.08665133 -0.11474729 -0.02838994 -0.07847094
000040 46 d1 06 3d 86 44 94 3d 5a f8 35 3c 6c 07 c1 bd
       0.032914422 0.07239632 0.011106575 -0.09425244
000050 23 a6 de bc 8f 79 67 bd b9 3f 5f 3c 56 ab d8 3b
       -0.02717883 -0.05651241 0.0136260325 0.0066122217
000060 43 b5 8c bd 58 b0 4b 3b 52 da 92 3d 35 e8 2e bb
       -0.068705104 0.003108045 0.071705475 -0.00266887
000070 c6 f9 b0 bd 34 ac 4b be ca 13 1f bd 28 23 9a bd
       -0.086413905 -0.19889909 -0.03883723 -0.07526237
000080 3e c4 13 bd e0 b3 be bd d3 e6 82 bd 30 1a 5a 3b
       -0.036075823 -0.09311652 -0.063916825 0.003327977
000090 e2 4a 93 3c 35 e6 8a bd 7d 95 24 be c6 ef 6d 3b
       0.017980043 -0.0678219 -0.1607265 0.0036306246
0000a0 59 53 88 bd b0 2a b2 bd c9 75 9a bd 46 8a 82 bb
       -0.06656522 -0.08699548 -0.07541997 -0.0039837686
0000b0 9a b1 8b bd 02 65 aa bd 4d 4f 45 3d b7 85 0f bd
       -0.06820984 -0.08320047 0.04817133 -0.03503963
0000c0 d9 e9 95 3b 65 7c a3 bd 46 04 70 3c cf 70 37 bc
       0.004574996 -0.07982711 0.014649456 -0.011196329
0000d0 41 31 38 3d 22 94 17 bd 59 10 69 bc 28 88 d0 bc
       0.044968847 -0.037006505 -0.014225089 -0.02545555
0000e0 5f 27 4b bc c4 87 a1 3d 3f b4 16 be e4 05 0a bd
       -0.0123995235 0.07887223 -0.14717196 -0.033697024
0000f0 b4 17 24 be 4c b8 cf bc 22 6f 32 bd 58 0f 05 3d
       -0.16024667 -0.025356434 -0.043563016 0.032485336

running_mean f4 [64]
000000 93 7a 1f 3d d6 23 c6 3e 01 2c 90 be 66 3f 64 3b
       0.038935255 0.38699216 -0.28158572 0.0034827827
000010 94 68 11 be b2 44 b6 3e 63 35 d4 be de f0 bf 3d
       -0.1420005 0.35599285 -0.4144698 0.09372114
000020 b4 80 46 3e c2 00 3c 3f 18 69 61 3e 90 0a 5a be
       0.19385034 0.73438656 0.22012746 -0.21293092
000030 88 96 78 be 22 db c6 be 3d 1e ca be ce 8d 2f 3e
       -0.24276173 -0.3883906 -0.39476195 0.17143938
000040 b9 9b 01 be 95 16 86 be 16 99 9e 3d d8 c7 b8 3e
       -0.1265706 -0.26189104 0.077440426 0.3608997
000050 4a b9 3f bd da 4d 83 3e ff e7 b3 be c6 49 59 3e
       -0.046807565 0.25645334 -0.35137936 0.21219549
000060 e8 a9 14 3e 33 3c 9e be 57 20 17 3f ea d8 16 3f
       0.14517939 -0.30905303 0.5903372 0.58924735
000070 13 00 90 be a7 a1 ad be ad 7c ab be 20 bc b3 be
       -0.28125057 -0.33912393 -0.33493558 -0.35104465
000080 76 b8 d0 3e 90 18 d1 3d bf b5 bc be 4f b9 fb 3d
       0.40765733 0.10209763 -0.3685741 0.12291204
000090 90 c0 9a 3e e7 9a 3a 3e 6a 75 35 bd c5 e2 cf 3e
       0.3022504 0.18223153 -0.044301428 0.406027
0000a0 16 d5 17 be 30 c7 12 be 48 cd 3a bc 35 22 54 be
       -0.1482738 -0.14333797 -0.011401482 -0.20716174
0000b0 75 1a 0f be 3f f7 19 bf fd c0 4a bd 5a 21 99 be
       -0.13974936 -0.6014289 -0.049500454 -0.29908258
0000c0 fb 6a 9e 3e 58 a1 90 be c5 21 81 3c 33 98 96 3c
       0.30940995 -0.28248096 0.015763173 0.018383121
0000d0 f3 62 25 3e 96 a4 9c 3d 89 71 6b 3e 3c f3 c2 bd
       0.16151027 0.0764858 0.22992529 -0.095190495
0000e0 1e d9 bd bd 07 96 70 bd f0 11 0a bf 22 79 a3 3e
       -0.092699274 -0.058736827 -0.5393362 0.31928355
0000f0 e0 9f 0e 3e 38 9f aa 3d 01 82 5f 3e 73 c8 ff 3d
       0.13928175 0.0833115 0.21826936 0.124894045

running_var f4 [64]
000000 14 2f 42 3e 0a d9 64 3e f7 19 d8 3d 66 81 e8 3d
       0.18963271 0.22348419 0.105518274 0.11352806
000010 10 a9 3d 3e 29 43 85 3e 31 26 66 3e 43 e8 95 3e
       0.18521523 0.26027802 0.22475506 0.29278764
000020 63 71 a2 3d 75 dd 98 3e d1 c5 84 3d 4a 1f 1e 3e
       0.07931783 0.29856458 0.06483043 0.15441623
000030 e1 75 62 3e 24 19 a5 3e 5c 94 6f 3e 9d 92 f5 3d
       0.2211528 0.32245743 0.23396438 0.11990855
000040 99 df 87 3e 4e ed ad 3e 85 87 25 3e 46 ae 60 3e
       0.2653778 0.33970112 0.16164978 0.2194148
000050 70 4c dc 3d ad d2 c5 3e 9b 85 ca 3e a0 28 15 3e
       0.10756767 0.38637295 0.39555058 0.14566278
000060 1a 4d 2a 3e e7 13 01 3e e4 5d 66 3e b0 eb 39 3e
       0.16630974 0.12605248 0.22496754 0.18156314
000070 74 44 13 3e 9e 41 40 3e 8a db 40 3e c7 c6 7b 3d
       0.14381582 0.18775031 0.18833748 0.061468866
000080 fc d5 31 3e ab 33 39 3e 02 10 8d 3e 99 3f 19 3e
       0.17366785 0.18086116 0.27551275 0.14965667
000090 67 08 57 3e e4 10 f0 3d 4a f2 ec 3d f9 f1 10 3e
       0.20999299 0.11721972 0.115696505 0.14154805
0000a0 5d eb 35 3e fd 6f 09 3e 3f 81 cf 3d c7 9e 89 3e
       0.17765565 0.13421626 0.101320736 0.2687895
0000b0 c5 45 60 3e 4d ef 88 3e 72 8c a6 3e d9 4f be 3e
       0.21901615 0.26745072 0.32529026 0.37170294
0000c0 e1 b7 0f 3e ed 35 03 3e 93 4e ec 3d 46 44 d1 3d
       0.14034988 0.1281354 0.11538424 0.102181
0000d0 a3 64 03 3e d2 55 5a 3e 7d 0b 9c 3d 03 51 b0 3e
       0.12831359 0.213218 0.07619379 0.34436807
0000e0 56 85 b7 3d 3f 59 43 3e 21 b2 80 3e 57 f2 2b 3e
       0.08960979 0.19077013 0.25135902 0.16791664
0000f0 04 a7 9c 3d ee ee e8 3d 7f 76 7f 3e b0 c8 87 3e
       0.07649043 0.11373697 0.24947546 0.265203

weight f4 [32, 64]
000000 69 05 70 bc 5b 72 b0 bd ce f5 db bd 44 12 51 bd
       -0.014649727 -0.086155616 -0.10740243 -0.05104281
000010 bd bd b4 bd c5 e4 f5 3d e1 65 b8 bd ad 5a 1d bb
       -0.08825252 0.12006525 -0.09003807 -0.0024010346
000020 63 84 d7 bc f6 e0 31 3d 8d 58 73 3d f6 bc 24 3d
       -0.026308244 0.04342743 0.05941062 0.04021927
000030 56 13 d5 3d d0 aa 0b be 47 30 05 3d 85 d1 93 3a
       0.10404079 -0.13639379 0.032516744 0.0011277652
000040 6f 75 c2 3b d5 36 8f bc 91 23 53 bd ec 81 89 bd
       0.0059344093 -0.0174822 -0.05154759 -0.06714234
000050 32 c1 6a 3d 67 c6 0f be 0e 04 ac 3d 25 6c 0a be
       0.05731315 -0.14040528 0.08399211 -0.13517816
000060 3f ee 3d be 52 a8 05 3d d1 04 e3 bd a8 3b 2c bd
       -0.18547915 0.032631226 -0.11084903 -0.04204908
000070 70 2a 95 3b 77 1d 37 3d e7 1c 7a 3b cb 4c 98 bd
       0.004552178 0.044705834 0.00381642 -0.07436522
000080 88 9f c1 3d bc ca c7 bd d7 06 70 3d 39 37 b4 3c
       0.09454256 -0.097554654 0.058600273 0.021998988
000090 2b 17 d0 bd 91 f8 55 3d bf 41 2f be c3 14 8f bd
       -0.10160669 0.052239005 -0.17114924 -0.06986382
0000a0 e2 cc de ba e5 bc 81 bd 5c 61 2a 3e 48 d4 81 3d
       -0.0016998316 -0.06334857 0.16638702 0.063393176
0000b0 8d c7 6b 3c 48 0c 6d 3b 06 5d 4c bd 34 e2 26 3d
       0.014390838 0.003617065 -0.0498934 0.040743068
0000c0 95 74 f2 3d bd 24 64 3d da 16 ba 3d c6 07 b3 bd
       0.118386425 0.0556991 0.0908639 -0.08741717
0000d0 22 b2 b4 3d 89 e8 06 bb 9f 4d b1 3d c3 ea c2 3d
       0.08823039 -0.002058538 0.08657383 0.095174335
0000e0 1e e8 bb 3d 39 1c e3 bc 2b be 7a bd 92 10 e5 3d
       0.09175132 -0.027723419 -0.061216515 0.11184801
0000f0 20 41 3e 3c 30 e9 f1 bc 92 92 14 bd 4b 89 f2 bd
       0.011612207 -0.029530138 -0.036272593 -0.11842593
000100 a1 5d df 3c 1f 8a 82 bd ac 14 ec bd 6d 3d 3b bd
       0.027266325 -0.06374001 -0.1152738 -0.045712877
000110 94 3c 50 3d 61 ec 83 bd 0d 5f 1e bd ce 0c 05 3e
       0.05083902 -0.0644157 -0.038664866 0.12993166
000120 10 86 fa 3c 1a d5 8b 3d c0 a2 b3 bd 6d 55 b5 3c
       0.030581504 0.06827755 -0.087712765 0.02213546
000130 22 e0 09 3c a2 ec 89 bd 96 41 b3 3d 67 48 ac 3b
       0.008415254 -0.06734587 0.08752744 0.0052576545
000140 1d 5f 0d 3e ac 6a 76 bd 43 28 00 3e d3 67 98 3d
       0.13805814 -0.060160324 0.12515359 0.07441678
000150 63 3e 4f 3d 6d ad c0 bd 1f d7 81 3d 4e 99 2d 3d
       0.050596606 -0.09408078 0.06339859 0.04238253
000160 c5 65 85 3d 71 c5 87 3c 50 15 f6 3d e5 4b 20 3d
       0.065135516 0.01657364 0.12015784 0.03913488
000170 32 0f 4e 3d ad 17 36 3d 15 77 bb bd 5a 0b af 3b
       0.05030746 0.044456173 -0.091535725 0.0053419294
000180 1c 02 b3 3b 5e 53 f6 3d 58 3e 1b bd 94 62 0e 3e
       0.005462898 0.1202762 -0.037901253 0.13904792
000190 f7 5a 90 3d 04 ed 22 3d 94 b0 6e bd 2c 0f 27 bd
       0.070486 0.039776817 -0.058273867 -0.040785953
0001a0 c1 6e 12 39 2c cf ff bd 5f a0 d8 bc fb e8 83 3d
       0.00013964904 -0.12490687 -0.026443658 0.06440922
0001b0 e7 6a f2 bc d9 63 fc bd df df 17 bd 00 0e 65 be
       -0.02959199 -0.12323732 -0.037078734 -0.22368622
0001c0 1c b7 ff bd 20 e8 26 3e 0b 2d d6 bd 79 e2 ec 3d
       -0.12486097 0.16299486 -0.1045781 0.11566634
0001d0 a1 a0 2a bd 89 aa ba bd f4 ba bb 3d a4 29 c9 bb
       -0.041657094 -0.09114558 0.09166518 -0.006138997
0001e0 40 47 09 be bd a8 95 bc 2e 10 06 bd cb 61 28 bd
       -0.13406086 -0.018268937 -0.032730274 -0.041108888
0001f0 e6 94 d7 bd e3 94 22 3d a4 cb ce 3b 63 a5 c2 3d
       -0.10526447 0.03969277 0.006310897 0.09504201
000200 06 4f 98 bd 66 78 88 3d 26 2e 2b bd f3 54 00 3e
       -0.074369475 0.06663589 -0.041792057 0.12532406
000210 5e 52 74 bd e1 1c a9 bc 94 7a 94 bc 6a 58 33 bd
       -0.059648864 -0.020643653 -0.018124856 -0.04378549
000220 b0 80 fe 3b 80 cd ba bc e9 7f 68 3b 15 99 7a 3d
       0.0077668056 -0.022803068 0.003547663 0.061181147
000230 ea f7 ce 3d db 59 16 be 8d 16 e0 bd 63 e4 b5 3d
       0.101058796 -0.14682715 -0.10941801 0.08881452
000240 dd 98 3a 3c c0 8d a3 3d d9 a6 4f 3d be 4d f4 bd
       0.0113889845 0.07986021 0.050696228 -0.11928891
000250 82 f0 27 bc 67 50 e1 bd 10 10 db bc f0 42 78 bd
       -0.010250213 -0.11001664 -0.026741058 -0.06061071
000260 6e 38 f5 3b 11 c9 d0 3d 99 c2 e0 39 47 e6 16 3d
       0.0074835336 0.101946004 0.00042869596 0.036840703
000270 9a 42 96 bd 5a 30 5c 3d b8 e3 0a 3e 65 0b 05 3e
       -0.07336922 0.05375705 0.1356343 0.12992628
000280 99 68 80 3d d6 45 90 bd 56 30 84 bd b3 20 75 bd
       0.062699504 -0.0704457 -0.06454532 -0.059845638
000290 2e d5 84 bc 05 94 d1 3d b5 c8 4e bd 82 53 1b bd
       -0.016214933 0.102333106 -0.050484378 -0.037921436
0002a0 39 2e 18 bb 6e f0 3b 3c eb 71 22 3d 79 0c e4 bd
       -0.002322091 0.011470897 0.039659422 -0.111351915
0002b0 37 41 1e 3e ca b7 aa 3d 9d a1 15 be 83 76 84 3d
       0.15454565 0.08335836 -0.14612432 0.06467917
0002c0 7c cc 6c 3b 02 11 f8 3d 9a cb b4 bd 08 31 49 3d
       0.0036132624 0.12112619 -0.088278964 0.049119025
0002d0 7a 52 24 bd b8 92 93 3d e4 40 e6 bc 30 28 7e bd
       -0.04011772 0.07205719 -0.028107114 -0.062050045
0002e0 cd cf eb bd e2 67 cc bc f4 dc 01 3d 46 b0 42 3e
       -0.11514244 -0.024951879 0.031704858 0.19012555
0002f0 a4 4a 24 3e ad 5d 36 3c e5 3a 9c bd 01 3d d4 3d
       0.16044098 0.0111307325 -0.07628421 0.10363198
000300 09 df a3 3d 01 a1 b5 3c 85 4e 9c 3d 3c b7 05 3d
       0.08001525 0.0221715 0.07632164 0.03264545
000310 ce c5 26 3d 86 dc 0b be bc 2d a6 bd 6e 2a 89 3d
       0.040715985 -0.13658342 -0.08114192 0.06697546
000320 9c c0 09 3d 57 ce 06 bd 71 d0 12 be c7 b5 9a bd
       0.033630952 -0.032911625 -0.14337327 -0.075542025
000330 29 e1 38 3b de 47 da bd 34 5b c9 3c 1a a4 30 3c
       0.0028210378 -0.10658239 0.024579622 0.010781312
000340 e2 06 03 3e 05 aa 14 3d 5f 4b bf 3c 86 aa 89 3d
       0.12795594 0.036294956 0.02335137 0.06721978
000350 cd 03 74 3c 7b ed 93 bd cb 9b 2c bd 92 1c b3 3d
       0.014893484 -0.0722303 -0.042140763 0.08745684
000360 92 03 c9 bc bb 2f d0 3b 04 ad a9 3d fc 8e aa 3c
       -0.024537835 0.006353346 0.08284953 0.020820133
000370 fe 8d 53 bd 05 ba a0 3d ce c6 2d bc c1 38 5b bc
       -0.051649086 0.078479804 -0.010606481 -0.01338023
000380 d1 ff 1a 3d 54 d2 fd 3c 09 dd b2 3c b4 08 9f bd
       0.03784162 0.030984081 0.021833913 -0.07765332
000390 9d 7b 84 3d e1 38 a4 bc 78 72 b8 3d 9d fc 0b 3e
       0.0646889 -0.020046653 0.09006208 0.13670583
0003a0 59 0b ad 3d fe ad d0 bd 2f 4f b1 bc cb 4e b7 3d
       0.0844943 -0.101894364 -0.021644203 0.089505754
0003b0 8f 7b da 3c f2 ed 37 be 73 2f ae bd 9c 92 ed 3c
       0.026670245 -0.17961863 -0.08505144 0.029000573
0003c0 cf d1 6e 3c 89 db 1a 3d 74 ad 02 3b b7 bc 27 3d
       0.014576389 0.03780702 0.0019939812 0.040951457
0003d0 ea c8 d1 3d af 8a 18 be da 91 ad 3c 19 ce db 3d
       0.102433994 -0.14896654 0.021187712 0.107326694
0003e0 06 05 02 be d4 41 00 3e e3 8c 43 bd 0d ce 1a 3e
       -0.12697229 0.12525111 -0.047741782 0.15117665
0003f0 a0 64 95 3d c5 ba 87 3d be 7d 80 bd 5d 5f 18 3e
       0.07294583 0.0662742 -0.062739834 0.14880128

bias f4 [32]
000000 14 ee bd 3b 0e 91 03 be fb 98 bc bc c6 62 f4 3d
       0.0057962034 -0.12848303 -0.023022166 0.11932902
000010 91 f6 d3 bc 43 75 aa bd bb 96 57 3d 47 0b 2d 3d
       -0.025874408 -0.08323147 0.052633982 0.042247083
000020 1c 18 25 bc 40 22 78 3d 37 30 b5 3c 69 03 da bb
       -0.010076549 0.06057954 0.022117717 -0.0066532386
000030 5d e3 ef 3d 70 75 99 bd b0 3d ce 3c ad 55 9c 3d
       0.11713288 -0.074931026 0.0251759 0.07633529
000040 00 16 5f 3d 72 a5 a2 bd d7 4c 23 bd 42 cd 6f bd
       0.05446434 -0.079417124 -0.039868202 -0.05854536
000050 71 b7 15 bd ed 90 a3 bd 94 c0 e0 3c 61 38 ee 3d
       -0.036551896 -0.07986627 0.027435578 0.11631847
000060 ba 72 03 3d fd 98 87 3d 2a 5c a2 bd 19 f5 05 3d
       0.032091834 0.06620977 -0.07927735 0.032704446
000070 35 aa ea 3d c9 e5 b4 3d f0 9d a0 bd 22 83 05 3e
       0.11458246 0.088328905 -0.07842624 0.13038304

weight f4 [32]
000000 7f 0f 77 3f 89 7a 79 3f f0 c6 78 3f 09 51 7d 3f
       0.9650802 0.974526 0.97178555 0.98951775
000010 4c f0 75 3f ac 94 7c 3f 82 65 82 3f 16 d4 7e 3f
       0.9606979 0.98664355 1.0187228 0.9954237
000020 e2 b8 85 3f 88 6b 80 3f d3 c0 86 3f 0d 61 7c 3f
       1.0447047 1.0032816 1.0527595 0.9858559
000030 d3 96 7d 3f 12 b3 7d 3f 48 f6 89 3f e2 ea 7b 3f
       0.99058264 0.99101365 1.0778284 0.9840528
000040 5e 3a 85 3f cd 25 83 3f 75 9d 82 3f fc 9a 80 3f
       1.0408437 1.0245911 1.0204302 1.0047297
000050 b0 5a 84 3f 68 43 84 3f 65 f6 65 3f 52 72 86 3f
       1.0340176 1.0333071 0.89829093 1.0503638
000060 ab f6 7d 3f 83 14 80 3f 88 8d 7c 3f f9 83 76 3f
       0.9920451 1.000626 0.9865346 0.96295124
000070 81 36 80 3f 4f ed 6c 3f e5 ca 78 3f 42 c4 7d 3f
       1.0016633 0.92549604 0.9718459 0.9912759

bias f4 [32]
000000 05 01 d6 ba 55 66 dd 3c b6 ce eb bc f4 3d a3 3d
       -0.0016327208 0.027026335 -0.02878509 0.07970801
000010 fa ce 69 bd 44 79 4d bd 12 9f 05 3a 44 f7 49 3d
       -0.057082154 -0.050164476 0.00050972507 0.049308077
000020 cb ef 0e be 5a e2 0b bd c0 7a 24 bd 51 b4 6c be
       -0.13958661 -0.034151413 -0.040156126 -0.2311566
000030 42 fd 03 bd c1 4f 9f bd 5e df 48 bd 5c ab bd bd
       -0.032223947 -0.07778884 -0.049041145 -0.092612
000040 d7 7e 9f be b7 35 01 bd 1f fe fb 3c 88 da 83 bd
       -0.3115146 -0.031545367 0.030760823 -0.06438166
000050 b8 5c af 3d 8c f5 80 be 2a 8e 84 be 8b a6 88 bd
       0.085626066 -0.25187337 -0.25889713 -0.066723906
000060 a2 46 db bd a8 0f 35 bd 80 80 1e bd 7d 88 0f bc
       -0.107068315 -0.044204384 -0.038696766 -0.008760569
000070 b9 51 07 bd 11 2e 20 bc 23 d6 85 bc da 84 31 3c
       -0.03303692 -0.009776608 -0.01633746 0.010834897

running_mean f4 [32]
000000 86 5f 31 be 95 43 8c bd 29 95 a3 3d 21 63 e1 3e
       -0.17321596 -0.06848828 0.079874344 0.44020942
000010 0f c8 8d bd 4e 6f 01 bf 12 38 a6 bd 0a 68 d7 3d
       -0.06922924 -0.5056046 -0.08116163 0.10517891
000020 44 8c 3a 3f 65 c8 e5 be 41 20 61 be 5a af f5 be
       0.7287028 -0.4487945 -0.2198496 -0.47985345
000030 2b 8f ac 3e 0c 16 e0 be cb 3e 82 bd 7c a9 c6 be
       0.33702978 -0.4376682 -0.06359633 -0.3880118
000040 f8 64 06 bf 25 4a e8 3e f8 65 cd be ce 72 c1 be
       -0.52497816 0.45369068 -0.40116858 -0.37782902
000050 79 91 65 3e ca 11 2e bf 7b 21 46 be 74 26 d5 be
       0.22418775 -0.67995894 -0.1934871 -0.416309
000060 2b d0 67 be da 82 2a be a8 40 13 3f 85 1f 99 3d
       -0.22638004 -0.16651478 0.5752053 0.07476715
000070 33 82 1d 3f ec 5a e4 3e 20 e1 b4 be ee a1 5a 3d
       0.61526793 0.44600618 -0.35328007 0.053377084

running_var f4 [32]
000000 ef 83 5d 3e 1d 4d a9 3e f7 c0 9b 3e 70 d8 cc 3e
       0.2163236 0.33066645 0.30420658 0.4000888
000010 40 18 97 3e 79 ff 91 3e ad 78 60 3e 47 85 85 3e
       0.2951069 0.28515223 0.21921034 0.26078245
000020 c7 a0 d0 3e 16 1e c5 3e 6c 86 77 3e 11 af 87 3e
       0.40747663 0.38499516 0.24172372 0.26500753
000030 0c b9 86 3e 1a 28 26 3f 46 4c 3a 3e a2 4c 8b 3e
       0.26313055 0.6490494 0.18193159 0.27206904
000040 fe 3c dd 3e 12 f0 c8 3e d5 f6 f4 3e 6d de 9a 3e
       0.43210596 0.3924566 0.47844568 0.30247822
000050 61 2f 11 3f 8f d2 8b 3e f6 a4 52 3e 59 39 d3 3e
       0.5671292 0.2730908 0.2057074 0.4125469
000060 b4 4c 63 3e 7e b3 d9 3e f7 17 1b 3f 51 c9 48 3e
       0.22197229 0.42519754 0.6058344 0.19608046
000070 5e 37 8f 3e e2 3f 7e 3e 12 44 8e 3e 1c 27 89 3e
       0.2797193 0.24829057 0.2778631 0.2678765

weight f4 [16, 32]
000000 14 7c 16 bb aa 04 32 be 36 16 bf 3c 9d 09 de bd
       -0.002296214 -0.17384592 0.02332602 -0.10841677
000010 4d 58 07 be 22 e1 d4 bb 99 bb 3b be 0f 36 1f be
       -0.13217278 -0.0064965645 -0.18333282 -0.15547965
000020 22 f8 41 3e d1 df 4c bd 25 b3 cf bd 96 75 6c 3e
       0.18942311 -0.050018135 -0.10141591 0.2309173
000030 d6 90 be bd 86 2b c4 3d 60 7f 84 bd f8 cf 11 be
       -0.09304969 0.09578614 -0.06469607 -0.1423949
000040 81 5a 85 3e dd 46 24 be 84 21 07 bd 78 ab 21 bb
       0.26045612 -0.16042657 -0.032990947 -0.0024668854
000050 55 8f bc bd f0 dc 79 bb 62 05 f0 3d a2 eb 72 bd
       -0.09207026 -0.0038126074 0.11719777 -0.05930675
000060 de 27 3d bc 85 45 ae bd 02 e3 f6 3d e9 26 8e bd
       -0.01154515 -0.085093535 0.12055017 -0.06941015
000070 53 0e aa 3d f2 38 b7 3d bc 81 9c bc 9a 2a f3 bd
       0.083035134 0.08946408 -0.01910483 -0.1187336
000080 8c 81 54 bd d1 aa 84 3d c3 9a b4 bd 7a 07 b2 bd
       -0.051881358 0.06477893 -0.08818581 -0.08692832
000090 87 16 a6 bd a9 22 94 bd 4f 01 42 bd dd f2 3e be
       -0.081097655 -0.072331734 -0.04736453 -0.18647332
0000a0 b4 9e e6 bc 1f ad f5 bd 44 6c 0d be ae ff 4b 3e
       -0.028151847 -0.11995911 -0.13810831 0.19921753
0000b0 38 66 c8 bd 8e f4 1b 3d c9 17 43 bd 18 2b 9b bd
       -0.09785122 0.038075022 -0.047630105 -0.07576579
0000c0 23 b3 3e 3e aa cf 83 bd 99 b5 9b 3d 36 55 f4 3d
       0.18623023 -0.06436093 0.076029964 0.11930315
0000d0 c7 b5 ae 3d 7b 93 12 3e b0 fa 51 3e f1 02 3d 3d
       0.08530765 0.14314072 0.20505786 0.046145383
0000e0 67 67 9e 3c 76 7a 83 bd ee 51 0f 3e 0f 35 d4 bd
       0.019336415 -0.06419842 0.13996097 -0.103616826
0000f0 e4 9e 13 3e 2f da 98 3d a0 82 f0 bd 19 24 df bd
       0.1441608 0.0746349 -0.11743665 -0.10895557
000100 27 39 27 be 6b 99 87 bd 46 6d 02 be ca de f5 bd
       -0.16330396 -0.06621059 -0.12736997 -0.12005384
000110 c1 ea df ba 19 b0 b8 3d 7a 31 00 be 22 28 5b bd
       -0.0017083512 0.09017963 -0.12518874 -0.05350507
000120 ee 55 8a 3c b7 f4 99 3d 12 7b 82 bb 11 05 87 3a
       0.016886678 0.07517379 -0.0039819563 0.0010301193
000130 68 82 2c be a1 b4 a2 3d ee ff 23 be 13 73 07 bd
       -0.16846621 0.079446085 -0.16015598 -0.033068728
000140 09 34 7e 3d ac ae 42 3d 29 f0 29 be 40 87 40 bd
       0.062061343 0.04752986 -0.1659552 -0.047003984
000150 0b cb 67 be 16 c4 c3 bc df f1 30 3e d9 7a 35 be
       -0.22636048 -0.023897212 0.17279766 -0.17722644
000160 89 73 3b 3c 5d 12 2b be 71 18 f9 bd 07 42 0f be
       0.01144112 -0.16706224 -0.12162865 -0.13990031
000170 5f 2b 8c 3d ac 0b b6 3c 1c 2d e2 bd fc a3 28 bc
       0.0684421 0.022222362 -0.1104376 -0.010293003
000180 83 95 0b 3d 4b 03 54 3e a4 f1 1e 3d 19 78 12 3e
       0.034078132 0.20704381 0.038804665 0.14303626
000190 e6 25 0e 3e 0f f3 ff 3d ee 04 15 be a8 30 b2 3c
       0.13881645 0.124975316 -0.14552662 0.021751717
0001a0 5b 3f 0b 3d 64 b8 14 3e 3b 3e 5f bc 38 a3 e7 bd
       0.033995967 0.14523464 -0.013625677 -0.113104284
0001b0 90 b7 78 bc 45 fd 00 3e a2 08 96 bc 18 81 79 3c
       -0.015180483 0.12596615 -0.018314663 0.015228532
0001c0 5a cd 4e 3d 4a 37 c8 bd ba 93 b7 3d 78 b2 0d be
       0.050488807 -0.097761706 0.089637235 -0.13837612
0001d0 5e 5e cf bd 6a dd 37 be 19 a3 ad 3c ba 09 2d be
       -0.10125421 -0.17955557 0.021195935 -0.16898242
0001e0 aa 2e 14 3e 89 56 0b 3e 29 69 04 3e f0 5a cf 3d
       0.14470926 0.1360723 0.1293074 0.10124767
0001f0 c4 6e 76 3d 1b 7b f3 bd f3 d3 08 be 61 50 2b bd
       0.060164228 -0.11888715 -0.13362102 -0.041824702
000200 79 b8 d9 bc 44 70 2f be 1e 97 c4 3d ac 21 80 bd
       -0.026577221 -0.1713267 0.09599136 -0.062564224
000210 b3 ac b0 bd 41 5e 8f bd 3f 07 f4 bd 00 37 0c 3d
       -0.0862669 -0.070003994 -0.119154446 0.03423214
000220 c1 26 ea bd 61 8c 4d be 3a db 3c 3c fa 0c 9f bc
       -0.11433173 -0.20073082 0.011526877 -0.019415367
000230 f8 81 ab bd 95 20 ae bd ff bf 04 3d 28 f3 0f 3e
       -0.08374399 -0.08502308 0.032409664 0.140576
000240 99 4c da bd ec 07 31 be 5a 9e 0a ba 15 8d d2 3b
       -0.10659141 -0.17288178 -0.00052878784 0.0064255097
000250 52 7a c8 3d cb 49 6d bd 9d 9c ef bc fa 76 21 3e
       0.09788956 -0.057931703 -0.029249484 0.15768042
000260 2d b8 2e 3e c1 61 86 bd 23 b3 5e be c7 50 5b 3d
       0.17062445 -0.06561614 -0.21748023 0.053543832
000270 e7 b9 0c 3e 58 1c cb 3d b3 22 a0 3d 96 f6 77 bd
       0.13742791 0.099175155 0.07819118 -0.060537897
000280 e4 52 67 3e 4b 53 aa 3c 0a ef 0d 3e 89 48 0a 3e
       0.22590214 0.02079167 0.13860717 0.13504232
000290 66 88 1f bd 0a e8 23 3e 6c f0 01 3e a1 36 0e 3e
       -0.03894844 0.16006485 0.1268937 0.13888027
0002a0 ae d1 81 3e 72 17 21 3e a7 86 ca 3d e3 5e 70 bd
       0.25355285 0.157316 0.09888964 -0.05868424
0002b0 d1 04 10 be 10 45 ce 3d 4b ef 26 bd b3 d2 b1 bd
       -0.14064337 0.100717664 -0.04075555 -0.08682766
0002c0 a9 17 c5 3c 3f 75 0d bd ab b3 8d 3d 94 83 51 3d
       0.024059134 -0.034535643 0.069190346 0.051150873
0002d0 71 8d 49 3e 81 e0 60 be d5 93 05 3e 03 f8 15 3d
       0.19682862 -0.21960641 0.13044675 0.036613476
0002e0 68 12 fa bd 7c 6c 9a 3d e2 b1 d6 3d e4 90 b9 bd
       -0.12210542 0.07540223 0.10483147 -0.09060839
0002f0 eb b9 df 3d dd 1c ed 3d 6a 78 41 3e eb f5 bf bd
       0.10924133 0.11577771 0.1889359 -0.09373077
000300 8e 9a 94 bc 35 f3 62 3d 5b 03 cf 3d d0 2e ed 3d
       -0.018140104 0.05540772 0.10108062 0.115811944
000310 b1 90 04 3d 90 e2 08 3e de 2f 96 3d fa b2 b9 bc
       0.03236455 0.13367677 0.07333349 -0.02266835
000320 04 1d 07 be 35 5f 8b bd c1 b4 85 be 66 1d 8e 3d
       -0.13194662 -0.06805269 -0.26114467 0.06939201
000330 ae 17 9c bd 0f d6 88 bc 10 f7 69 3e 58 12 15 3e
       -0.07621704 -0.016703634 0.22848153 0.14557779
000340 8e 30 27 bd 77 99 9b bd 09 53 a6 3c 65 81 3f 3e
       -0.04081779 -0.075976305 0.020303266 0.18701704
000350 dd 76 15 be 5a 24 37 bd a0 ac 9a bd eb e2 08 be
       -0.14596124 -0.044712402 -0.07552457 -0.13367812
000360 8d d2 f2 bd 2e 37 f9 bd a4 6b c1 bc 62 95 e1 3d
       -0.118565656 -0.12168728 -0.023610897 0.11014821
000370 9f bd 2d 3e 36 e8 35 bd 8e 47 7a 3d 12 a5 91 3d
       0.16966866 -0.044410907 0.061103396 0.07111563
000380 24 f0 a2 3d 2f 53 00 bd 49 82 fa 3d 00 c6 49 be
       0.079559594 -0.03132933 0.12231881 -0.19704437
000390 4a 9e a0 bc 6f 0d 00 3e 47 e2 e3 bd 85 52 08 be
       -0.019606728 0.12505125 -0.11127143 -0.13312729
0003a0 45 e6 64 bd ae 6c fa bd ba a6 bc 3c 28 4a d7 bd
       -0.055883665 -0.1222776 0.02302872 -0.10512191
0003b0 5c a0 38 be a1 64 82 be 35 19 83 3c 4f 02 3e 3e
       -0.18029922 -0.254674 0.01600323 0.18555568
0003c0 27 3d fe bc 73 24 55 be 12 80 71 3d 2d fa 0b 3c
       -0.03103502 -0.20814686 0.058960028 0.008543533
0003d0 51 fb 2b 3d c8 79 da bd 7b 68 54 3d 7b b4 b1 3b
       0.04198772 -0.10667759 0.051857453 0.0054231263
0003e0 47 a8 0b 3e 2b 7e 13 3e fe 4a 8b bd 60 11 08 be
       0.13638411 0.14403598 -0.06801413 -0.13287878
0003f0 d2 09 1d be 47 74 25 bd 0b 81 c7 3d 19 7a 8d 3d
       -0.15335777 -0.040394094 0.0974141 0.06908054
