src/models/dnn.pt (torch, 6152 bytes, 7 tensors)

weight f4 [32, 6]
0.48368552 0.022240112 -0.040983386 0.03855693 -0.44526872 -0.20354247 0.12056651 0.11336751
0.029770203 0.012650719 -0.40612382 -0.85494375 -0.10891569 0.02431049 0.028900847 -0.10695433
-0.25986308 -0.6784156 0.46838063 -0.38560313 0.0277444 -0.036808465 0.06651998 0.6174833
0.20380205 0.04598637 -0.017409971 -0.0065679983 -0.33903503 -0.15791616 -0.28088778 0.28795755
0.05308687 0.006990865 -0.0069025243 -0.6121465 -0.17236343 0.33446082 0.026634246 0.39929003
-0.117278896 -0.1280013 0.17134184 -0.3764476 0.08618283 0.03506022 -0.08789845 -0.34188068
-0.1854744 -0.04552602 0.020831663 -0.0664744 -0.37999567 -0.6917418 -0.16599588 0.08142324
-0.042064134 -0.08251337 0.3309014 0.6186206 0.46499664 -0.27877265 -0.02435631 0.009970574
0.08457327 0.4014852 -0.004832353 -0.18509457 0.019602071 -0.10967537 0.52849597 0.14261204
0.60759526 -0.07563767 0.061016425 0.07958076 0.14263535 0.22552271 -0.112718105 0.048433825
-0.0070617483 -0.05565646 -0.054987162 0.9235616 0.00083081954 0.21486934 -0.007630308 0.09881224
-0.4003378 -0.25362402 0.03246733 -0.11170727 -0.030377716 0.38481972 -0.36467403 -0.27222583
-0.29562175 0.30024803 0.049063124 -0.0107069835 -0.033801824 -0.61343044 -0.38875246 0.32961455
-0.0389415 -0.16778491 0.12785436 0.036253676 0.09356156 0.2560882 0.08362877 0.5459168
-0.2844213 -0.21794836 -0.22725368 -0.32719615 0.2216698 0.360431 -0.26226962 0.24493356
-0.036091894 -0.014553244 0.011610694 -0.018603677 -0.21414548 0.75529426 0.019568302 -0.19043632
-0.27109694 -0.011465304 -0.38711697 0.07289575 -0.11021092 -0.23876463 0.026380992 0.34484205
0.05401572 -0.357293 -0.32296088 -0.2589194 -0.28705257 -0.0827061 0.19517703 -0.40359607
-0.18001635 -0.31959563 -0.1210096 0.43646064 -0.26717854 0.15770724 0.21962838 -0.11537793
-0.38379714 -0.37600416 0.31186518 0.0045744022 0.020054895 0.24722217 -0.04763199 0.017318074
-0.29157355 -0.41569865 -0.2719506 -0.10855615 -0.01272123 -0.034425132 -0.5314388 -0.71355957
0.14955844 0.14863057 0.35881215 -0.20243175 0.02413223 0.1639425 -0.37620437 0.24125354
0.031320035 -0.14673877 -0.35675746 0.68834215 -0.05796698 0.24045432 0.22799137 0.11564231
0.17419486 -0.2651125 0.17026277 0.26474544 0.14831111 -0.22875865 -0.3287243 -0.32919484
00000000: a1a5 f73e e530 b63c 32de 27bd dfed 1d3d
00000010: 43fa e3be 706d 50be 93eb f63d 3a2d e83d
00000020: a4e0 f33c f644 4f3c 76ef cfbe 98dd 5abf
00000030: 300f dfbd cb26 c73c 78c1 ec3c df0a dbbd
00000040: c60c 85be a5ac 2dbf 96cf ef3e c66d c5be
00000050: 3948 e33c 79c4 16bd a13b 883d 6313 1e3f
00000060: 7cb1 503e 345c 3c3d 5b9f 8ebc 5d38 d7bb
00000070: 0096 adbe c6b4 21be 86d0 8fbe 2c6f 933e
00000080: 9e71 593d a013 e53b 922e e2bb a2b5 1cbf
00000090: 0a80 30be 733e ab3e 1030 da3c be6f cc3e
000000a0: eb2f f0bd c612 03be 3c74 2f3e bdbd c0be
000000b0: a080 b03d 4e9b 0f3d 1a04 b4bd fc0a afbe
000000c0: 00ed 3dbe 7e79 3abd 2aa7 aa3c bb23 88bd
000000d0: cb8e c2be fe15 31bf d3fa 29be 3ac1 a63d
000000e0: 714b 2cbd c5fc a8bd e96b a93e eb5d 1e3f
000000f0: 0a14 ee3e 4abb 8ebe e286 c7bc 9e5b 233c
00000100: c034 ad3d 788f cd3e b758 9ebb 6e89 3dbe
00000110: 8694 a03c 7b9d e0bd 834b 073f e408 123e
00000120: 5d8b 1b3f ece7 9abd 5cec 793d 3dfb a23d
00000130: 000f 123e 6def 663e c0d8 e6bd 8c62 463d
00000140: 3d66 e7bb 07f8 63bd 383a 61bd 886e 6c3f
00000150: 5bcb 593a b506 5c3e aa07 fabb 125e ca3d
00000160: 13f9 ccbe 02db 81be 77fc 043d c8c6 e4bd
00000170: b0da f8bc 1707 c53e 8eb6 babe 2f61 8bbe
00000180: bc5b 97be 1cba 993e 6af6 483d 586c 2fbc
00000190: c873 0abd c709 1dbf 900a c7be 3dc3 a83e
000001a0: 1f81 1fbd cfcf 2bbe 41ec 023e bc7e 143d
000001b0: 349d bf3d fe1d 833e 9045 ab3d 34c1 0b3f
000001c0: ab9f 91be db2d 5fbe 30b5 68be 4186 a7be
000001d0: 68fd 623e 698a b83e 3448 86be ddcf 7a3e
000001e0: 18d5 13bd bb70 6ebc c83a 3e3c bd66 98bc
000001f0: f448 5bbe f75a 413f b44d a03c bd01 43be
00000200: 38cd 8abe f8d8 3bbc 3234 c6be 5e4a 953d
00000210: 43b6 e1bd b77e 74be f31c d83c 238f b03e
00000220: 963f 5d3d 1cef b6be 215b a5be 1591 84be
00000230: 8ef8 92be d161 a9bd 7ddc 473e 25a4 cebe
00000240: 3556 38be 0aa2 a3be e2d3 f7bd c577 df3e
00000250: a0cb 88be 027e 213e 43e6 603e 444b ecbd
00000260: 0f81 c4be 9e83 c0be cbac 9f3e dee4 953b
00000270: 2a4a a43c cf27 7d3e c319 43bd a2de 8d3c
00000280: 2149 95be 74d6 d4be 1c3d 8bbe b052 debd
00000290: b56c 50bc 5e01 0dbd 600c 08bf d7ab 36bf
000002a0: d925 193e 9d32 183e 3ab6 b73e 454a 4fbe
000002b0: f4b0 c53c 8be0 273e dc9d c0be 2b0b 773e
000002c0: 7049 003d b042 16be eaa8 b6be 3137 303f
000002d0: c96e 6dbd a839 763e 9276 693e e0d5 ec3d
000002e0: 2360 323e d3bc 87be 5d59 2e3e b78c 873e
000002f0: dede 173e b53f 6abe 8d4e a8be 3a8c a8be

bias f4 [32]
0.25670052 -0.19550568 -0.068878844 0.2023821 0.3239913 0.22555529 -0.21498048 0.2723003
0.2471689 -0.10376281 -0.026519045 0.012272451 0.3160968 -0.040205296 -0.035492808 0.055905566
-0.15122883 0.086694255 -0.059433535 -0.11307521 0.36565605 -0.3482375 0.06584549 0.35748994
-0.06668358 0.34979188 0.08101611 0.13293037 0.033830266 -0.016874 0.055405725 -0.31074083
00000000: 406e 833e a432 48be 5a10 8dbd 413d 4f3e
00000010: 30e2 a53e f7f7 663e d823 5cbe f26a 8b3e
00000020: d819 7d3e 9981 d4bd 783e d9bc 6412 493c
00000030: 71d7 a13e 4fae 24bd e860 11bd 3cfd 643d
00000040: bbdb 1abe c28c b13d 9470 73bd fa93 e7bd
00000050: 4537 bb3e 304c b2be 00da 863d ec08 b73e
00000060: 6791 88bd ec17 b33e c6eb a53d e61e 083e
00000070: 9b91 0a3d 583b 8abc 1df1 623d 6c19 9fbe

weight f4 [32]
1.0467802 1.1530361 1.2092446 0.95453733 1.0522292 0.9276935 1.0483743 0.9309844
1.223902 1.0418668 1.0172771 1.1540183 1.1445384 1.0909092 1.1168458 1.0239564
1.0353905 0.94069356 0.92006725 1.0290717 1.2755905 0.9178188 1.0783764 0.924935
1.0104303 0.9154184 1.0040656 1.19222 0.9382897 1.0158769 0.989368 0.9824574
00000000: e5fc 853f b096 933f 87c8 9a3f 8f5c 743f
00000010: 72af 863f 527d 6d3f 2131 863f fe54 6e3f
00000020: d2a8 9c3f e45b 853f 2336 823f dfb6 933f
00000030: 3c80 923f eaa2 8b3f cef4 8e3f 0111 833f
00000040: ad87 843f 4bd1 703f 8789 6b3f 9fb8 833f
00000050: 8d46 a33f 2cf6 6a3f 3d08 8a3f 8ac8 6c3f
00000060: c855 813f dc58 6a3f 3985 803f aa9a 983f
00000070: c133 703f 4108 823f 3947 7d3f 5482 7b3f

bias f4 [32]
0.11245097 0.17278622 -0.23344678 -0.46782255 0.089607105 0.28902346 -0.18502082 0.16522908
-0.41354674 -0.3995379 -0.5816693 -0.045353588 0.1574328 -0.4027312 -0.20832224 0.07485122
0.340572 -0.4602207 -0.058091532 -0.1363443 -0.3462831 -0.18453132 -0.17743386 -0.08205437
-0.12116366 -0.13749884 -0.1423288 -0.20923337 -0.09666311 -0.4731669 0.049428668 -0.0045715445
00000000: b24c e63d dfee 303e ac0c 6fbe 7086 efbe
00000010: ee83 b73d e2fa 933e 1976 3dbe d031 293e
00000020: 66bc d3be 3b90 ccbe 47e8 14bf afc4 39bd
00000030: 1036 213e c932 cebe 6d52 55be 994b 993d
00000040: 745f ae3e 0ca2 ebbe 63f1 6dbd d79d 0bbe
00000050: 054c b1be c7f5 3cbe 39b1 35be 1f0c a8bd
00000060: a724 f8bd 7fcc 0cbe a4be 11be 4641 56be
00000070: 4ff7 c5bd ef42 f2be b775 4a3d e5cc 95bb

running_mean f4 [32]
0.26400214 0.38531142 0.4144534 -0.29479724 0.32916325 0.7457876 -0.16023892 0.5393706
0.69467694 -0.51199335 -0.330519 0.10010784 0.18533759 -0.8634093 0.022876708 0.1466525
0.35964277 0.09782195 0.010625336 -0.43407682 -0.3746188 -0.55925465 0.39497057 0.7853115
-0.3107941 0.47986567 0.32449904 0.5388318 -0.099388845 -0.7621897 0.34763467 -0.15482076
00000000: 4a2b 873e 8a47 c53e 3c33 d43e aaef 96be
00000010: 1688 a83e f0eb 3e3f ac15 24be 3114 0a3f
00000020: 59d6 313f ff11 03bf c939 a9be 5705 cd3d
00000030: 23c9 3d3e 6408 5dbf ef67 bb3c 132c 163e
00000040: 1923 b83e e056 c83d e415 2e3c 513f debe
00000050: 09ce bfbe 502b 0fbf 9539 ca3e 2d0a 493f
00000060: 6720 9fbe f4b0 f53e bd24 a63e e1f0 093f
00000070: 618c cbbd dd1e 43bf 2cfd b13e 5589 1ebe

running_var f4 [32]
0.3179949 0.048963357 0.021350116 0.4261712 0.06405657 0.181378 0.24071606 0.2855102
0.04538181 0.12946741 0.3414814 0.0135090165 0.362935 0.05092458 0.017330868 0.13917091
0.1950795 0.41799194 0.17544903 0.20921451 0.003952428 0.11996601 0.118583806 0.13234207
0.2133276 0.21091145 0.021786548 0.09074928 0.110732324 0.26861233 0.114878744 0.079047024
00000000: 3ad0 a23e cd8d 483d 70e6 ae3c 1d33 da3e
00000010: 1730 833d 28bb 393e 457e 763e 652e 923e
00000020: 47e2 393d 1b93 043e a6d6 ae3e ec54 5d3c
00000030: 9ed2 b93e 4b96 503d 77f9 8d3c d282 0e3e
00000040: ecc2 473e 0a03 d63e e9a8 333e 543c 563e
00000050: 5e83 813b bdb0 f53d 11dc f23d ae84 073e
00000060: 8d72 5a3e 2cf9 573e b479 b23c c2da b93d
00000070: a1c7 e23d 8e87 893e 8c45 eb3d 68e3 a13d

weight f4 [1, 32]
0.19385152 0.13112889 0.23746483 -0.17676094 0.21133354 -0.14777005 -0.07522273 0.041856457
0.2563381 0.1728719 -0.29903612 -0.18422887 0.13964987 0.16647276 -0.13346688 -0.069002785
-0.11516275 0.2006566 -0.07738983 -0.08579189 0.29236427 -0.0850491 -0.1157289 0.03081741
-0.108302176 0.032681275 -0.15223293 0.31086612 -0.10771968 0.17412521 -0.09181209 -0.10838548
00000000: 0381 463e a746 063e fb29 733e d200 35be
00000010: d267 583e 0851 17be 600e 9abd ad71 2b3d
00000020: bf3e 833e 5505 313e 431b 99be 7ea6 3cbe
00000030: 6000 0f3e d677 2a3e 8bab 08be 5551 8dbd
00000040: 73da ebbd ec78 4d3e 8f7e 9ebd a9b3 afbd
00000050: c5b0 953e 392e aebd 4603 edbd cb74 fc3c
00000060: 88cd ddbd cddc 053d f3e2 1bbe d829 9f3e
00000070: 239c dcbd e14d 323e fa07 bcbd 35f9 ddbd
